…
I0705 15:19:39.535708 26103 net.cpp:294] The NetState phase (0) differed from the phase (1) specified by a rule in layer crowd
I0705 15:19:39.535976 26103 net.cpp:51] Initializing net from parameters: 
name: "MCNN_pretrain3"
state {
  phase: TRAIN
  level: 0
  stage: ""
}
layer {
  name: "crowd"
  type: "CrowdData"
  top: "image"
  top: "dmap"
  include {
    phase: TRAIN
  }
  transform_param {
    scale: 1
  }
  image_data_param {
    source: "data/part_A_final/train_data/map.txt"
    batch_size: 1
    root_folder: "data/part_A_final/train_data/"
  }
}
layer {
  name: "conv3_1"
  type: "Convolution"
  bottom: "image"
  top: "conv3_1"
  param {
    lr_mult: 1
  }
  param {
    lr_mult: 2
  }
  convolution_param {
    num_output: 64
    pad: 4
    kernel_size: 9
    stride: 1
    weight_filler {
      type: "gaussian"
      std: 0.01
    }
    bias_filler {
      type: "constant"
      value: 0
    }
  }
}
layer {
  name: "relu3_1"
  type: "ReLU"
  bottom: "conv3_1"
  top: "conv3_1"
}
layer {
  name: "conv3_2"
  type: "Convolution"
  bottom: "conv3_1"
  top: "conv3_2"
  param {
    lr_mult: 1
  }
  param {
    lr_mult: 2
  }
  convolution_param {
    num_output: 64
    pad: 4
    kernel_size: 9
    stride: 1
    weight_filler {
      type: "gaussian"
      std: 0.01
    }
    bias_filler {
      type: "constant"
      value: 0
    }
  }
}
layer {
  name: "relu3_2"
  type: "ReLU"
  bottom: "conv3_2"
  top: "conv3_2"
}
layer {
  name: "pool3_2"
  type: "Pooling"
  bottom: "conv3_2"
  top: "pool3_2"
  pooling_param {
    pool: MAX
    kernel_size: 2
    stride: 2
  }
}
layer {
  name: "conv3_3"
  type: "Convolution"
  bottom: "pool3_2"
  top: "conv3_3"
  param {
    lr_mult: 1
  }
  param {
    lr_mult: 2
  }
  convolution_param {
    num_output: 128
    pad: 4
    kernel_size: 9
    stride: 1
    weight_filler {
      type: "gaussian"
      std: 0.01
    }
    bias_filler {
      type: "constant"
      value: 0
    }
  }
}
layer {
  name: "relu3_3"
  type: "ReLU"
  bottom: "conv3_3"
  top: "conv3_3"
}
layer {
  name: "conv3_4"
  type: "Convolution"
  bottom: "conv3_3"
  top: "conv3_4"
  param {
    lr_mult: 1
  }
  param {
    lr_mult: 2
  }
  convolution_param {
    num_output: 128
    pad: 4
    kernel_size: 9
    stride: 1
    weight_filler {
      type: "gaussian"
      std: 0.01
    }
    bias_filler {
      type: "constant"
      value: 0
    }
  }
}
layer {
  name: "relu3_4"
  type: "ReLU"
  bottom: "conv3_4"
  top: "conv3_4"
}
layer {
  name: "pool3_4"
  type: "Pooling"
  bottom: "conv3_4"
  top: "pool3_4"
  pooling_param {
    pool: MAX
    kernel_size: 2
    stride: 2
  }
}
layer {
  name: "conv3_5"
  type: "Convolution"
  bottom: "pool3_4"
  top: "conv3_5"
  param {
    lr_mult: 1
  }
  param {
    lr_mult: 2
  }
  convolution_param {
    num_output: 256
    pad: 3
    kernel_size: 7
    stride: 1
    weight_filler {
      type: "gaussian"
      std: 0.01
    }
    bias_filler {
      type: "constant"
      value: 0
    }
  }
}
layer {
  name: "relu3_5"
  type: "ReLU"
  bottom: "conv3_5"
  top: "conv3_5"
}
layer {
  name: "conv3_6"
  type: "Convolution"
  bottom: "conv3_5"
  top: "conv3_6"
  param {
    lr_mult: 1
  }
  param {
    lr_mult: 2
  }
  convolution_param {
    num_output: 256
    pad: 3
    kernel_size: 7
    stride: 1
    weight_filler {
      type: "gaussian"
      std: 0.01
    }
    bias_filler {
      type: "constant"
      value: 0
    }
  }
}
layer {
  name: "relu3_6"
  type: "ReLU"
  bottom: "conv3_6"
  top: "conv3_6"
}
layer {
  name: "conv"
  type: "Convolution"
  bottom: "conv3_6"
  top: "estdmap"
  convolution_param {
    num_output: 1
    kernel_size: 1
    weight_filler {
      type: "gaussian"
      std: 0.01
    }
  }
}
layer {
  name: "re_gtcount"
  type: "Reduction"
  bottom: "dmap"
  top: "gtcount"
  loss_weight: 0
  propagate_down: false
  reduction_param {
    axis: 1
  }
}
layer {
  name: "re_estcount"
  type: "Reduction"
  bottom: "estdmap"
  top: "estcount"
  loss_weight: 0
  propagate_down: false
  reduction_param {
    axis: 1
  }
}
layer {
  name: "loss"
  type: "EuclideanLoss"
  bottom: "estdmap"
  bottom: "dmap"
  top: "loss"
}
layer {
  name: "loss2"
  type: "EuclideanLoss"
  bottom: "gtcount"
  bottom: "estcount"
  top: "loss2"
  loss_weight: 0
  propagate_down: false
  propagate_down: false
}
I0705 15:19:39.536222 26103 layer_factory.hpp:77] Creating layer crowd
I0705 15:19:39.536272 26103 net.cpp:84] Creating Layer crowd
I0705 15:19:39.536284 26103 net.cpp:380] crowd -> image
I0705 15:19:39.536314 26103 net.cpp:380] crowd -> dmap
I0705 15:19:39.549151 26103 crowd_data_layer.cpp:327] output crowd image size: 1,3,128,128
I0705 15:19:39.549255 26103 crowd_data_layer.cpp:337] output density map size: 1,1,32,32
I0705 15:19:39.552937 26103 net.cpp:122] Setting up crowd
I0705 15:19:39.552973 26103 net.cpp:129] Top shape: 1 3 128 128 (49152)
I0705 15:19:39.553025 26103 net.cpp:129] Top shape: 1 1 32 32 (1024)
I0705 15:19:39.553037 26103 net.cpp:137] Memory required for data: 200704
I0705 15:19:39.553051 26103 layer_factory.hpp:77] Creating layer dmap_crowd_1_split
I0705 15:19:39.553066 26103 net.cpp:84] Creating Layer dmap_crowd_1_split
I0705 15:19:39.553076 26103 net.cpp:406] dmap_crowd_1_split <- dmap
I0705 15:19:39.553092 26103 net.cpp:380] dmap_crowd_1_split -> dmap_crowd_1_split_0
I0705 15:19:39.553107 26103 net.cpp:380] dmap_crowd_1_split -> dmap_crowd_1_split_1
I0705 15:19:39.553210 26103 net.cpp:122] Setting up dmap_crowd_1_split
I0705 15:19:39.553226 26103 net.cpp:129] Top shape: 1 1 32 32 (1024)
I0705 15:19:39.553236 26103 net.cpp:129] Top shape: 1 1 32 32 (1024)
I0705 15:19:39.553243 26103 net.cpp:137] Memory required for data: 208896
I0705 15:19:39.553249 26103 layer_factory.hpp:77] Creating layer conv3_1
I0705 15:19:39.553272 26103 net.cpp:84] Creating Layer conv3_1
I0705 15:19:39.553285 26103 net.cpp:406] conv3_1 <- image
I0705 15:19:39.553297 26103 net.cpp:380] conv3_1 -> conv3_1
I0705 15:19:39.925246 26103 net.cpp:122] Setting up conv3_1
I0705 15:19:39.925292 26103 net.cpp:129] Top shape: 1 64 128 128 (1048576)
I0705 15:19:39.925302 26103 net.cpp:137] Memory required for data: 4403200
I0705 15:19:39.925333 26103 layer_factory.hpp:77] Creating layer relu3_1
I0705 15:19:39.925360 26103 net.cpp:84] Creating Layer relu3_1
I0705 15:19:39.925374 26103 net.cpp:406] relu3_1 <- conv3_1
I0705 15:19:39.925385 26103 net.cpp:367] relu3_1 -> conv3_1 (in-place)
I0705 15:19:39.925907 26103 net.cpp:122] Setting up relu3_1
I0705 15:19:39.925926 26103 net.cpp:129] Top shape: 1 64 128 128 (1048576)
I0705 15:19:39.925935 26103 net.cpp:137] Memory required for data: 8597504
I0705 15:19:39.925943 26103 layer_factory.hpp:77] Creating layer conv3_2
I0705 15:19:39.925974 26103 net.cpp:84] Creating Layer conv3_2
I0705 15:19:39.925988 26103 net.cpp:406] conv3_2 <- conv3_1
I0705 15:19:39.926002 26103 net.cpp:380] conv3_2 -> conv3_2
I0705 15:19:39.939770 26103 net.cpp:122] Setting up conv3_2
I0705 15:19:39.939795 26103 net.cpp:129] Top shape: 1 64 128 128 (1048576)
I0705 15:19:39.939805 26103 net.cpp:137] Memory required for data: 12791808
I0705 15:19:39.939822 26103 layer_factory.hpp:77] Creating layer relu3_2
I0705 15:19:39.939872 26103 net.cpp:84] Creating Layer relu3_2
I0705 15:19:39.939888 26103 net.cpp:406] relu3_2 <- conv3_2
I0705 15:19:39.939899 26103 net.cpp:367] relu3_2 -> conv3_2 (in-place)
I0705 15:19:39.940126 26103 net.cpp:122] Setting up relu3_2
I0705 15:19:39.940143 26103 net.cpp:129] Top shape: 1 64 128 128 (1048576)
I0705 15:19:39.940151 26103 net.cpp:137] Memory required for data: 16986112
I0705 15:19:39.940178 26103 layer_factory.hpp:77] Creating layer pool3_2
I0705 15:19:39.940219 26103 net.cpp:84] Creating Layer pool3_2
I0705 15:19:39.940254 26103 net.cpp:406] pool3_2 <- conv3_2
I0705 15:19:39.940292 26103 net.cpp:380] pool3_2 -> pool3_2
I0705 15:19:39.940388 26103 net.cpp:122] Setting up pool3_2
I0705 15:19:39.940404 26103 net.cpp:129] Top shape: 1 64 64 64 (262144)
I0705 15:19:39.940412 26103 net.cpp:137] Memory required for data: 18034688
I0705 15:19:39.940419 26103 layer_factory.hpp:77] Creating layer conv3_3
I0705 15:19:39.940459 26103 net.cpp:84] Creating Layer conv3_3
I0705 15:19:39.940474 26103 net.cpp:406] conv3_3 <- pool3_2
I0705 15:19:39.940490 26103 net.cpp:380] conv3_3 -> conv3_3
I0705 15:19:39.967012 26103 net.cpp:122] Setting up conv3_3
I0705 15:19:39.967041 26103 net.cpp:129] Top shape: 1 128 64 64 (524288)
I0705 15:19:39.967049 26103 net.cpp:137] Memory required for data: 20131840
I0705 15:19:39.967062 26103 layer_factory.hpp:77] Creating layer relu3_3
I0705 15:19:39.967074 26103 net.cpp:84] Creating Layer relu3_3
I0705 15:19:39.967079 26103 net.cpp:406] relu3_3 <- conv3_3
I0705 15:19:39.967087 26103 net.cpp:367] relu3_3 -> conv3_3 (in-place)
I0705 15:19:39.967589 26103 net.cpp:122] Setting up relu3_3
I0705 15:19:39.967607 26103 net.cpp:129] Top shape: 1 128 64 64 (524288)
I0705 15:19:39.967617 26103 net.cpp:137] Memory required for data: 22228992
I0705 15:19:39.967622 26103 layer_factory.hpp:77] Creating layer conv3_4
I0705 15:19:39.967638 26103 net.cpp:84] Creating Layer conv3_4
I0705 15:19:39.967643 26103 net.cpp:406] conv3_4 <- conv3_3
I0705 15:19:39.967651 26103 net.cpp:380] conv3_4 -> conv3_4
I0705 15:19:40.022943 26103 net.cpp:122] Setting up conv3_4
I0705 15:19:40.022979 26103 net.cpp:129] Top shape: 1 128 64 64 (524288)
I0705 15:19:40.022985 26103 net.cpp:137] Memory required for data: 24326144
I0705 15:19:40.022999 26103 layer_factory.hpp:77] Creating layer relu3_4
I0705 15:19:40.023010 26103 net.cpp:84] Creating Layer relu3_4
I0705 15:19:40.023016 26103 net.cpp:406] relu3_4 <- conv3_4
I0705 15:19:40.023023 26103 net.cpp:367] relu3_4 -> conv3_4 (in-place)
I0705 15:19:40.023532 26103 net.cpp:122] Setting up relu3_4
I0705 15:19:40.023550 26103 net.cpp:129] Top shape: 1 128 64 64 (524288)
I0705 15:19:40.023555 26103 net.cpp:137] Memory required for data: 26423296
I0705 15:19:40.023560 26103 layer_factory.hpp:77] Creating layer pool3_4
I0705 15:19:40.023571 26103 net.cpp:84] Creating Layer pool3_4
I0705 15:19:40.023581 26103 net.cpp:406] pool3_4 <- conv3_4
I0705 15:19:40.023591 26103 net.cpp:380] pool3_4 -> pool3_4
I0705 15:19:40.023666 26103 net.cpp:122] Setting up pool3_4
I0705 15:19:40.023682 26103 net.cpp:129] Top shape: 1 128 32 32 (131072)
I0705 15:19:40.023690 26103 net.cpp:137] Memory required for data: 26947584
I0705 15:19:40.023702 26103 layer_factory.hpp:77] Creating layer conv3_5
I0705 15:19:40.023728 26103 net.cpp:84] Creating Layer conv3_5
I0705 15:19:40.023739 26103 net.cpp:406] conv3_5 <- pool3_4
I0705 15:19:40.023756 26103 net.cpp:380] conv3_5 -> conv3_5
I0705 15:19:40.087481 26103 net.cpp:122] Setting up conv3_5
I0705 15:19:40.087520 26103 net.cpp:129] Top shape: 1 256 32 32 (262144)
I0705 15:19:40.087529 26103 net.cpp:137] Memory required for data: 27996160
I0705 15:19:40.087556 26103 layer_factory.hpp:77] Creating layer relu3_5
I0705 15:19:40.087586 26103 net.cpp:84] Creating Layer relu3_5
I0705 15:19:40.087627 26103 net.cpp:406] relu3_5 <- conv3_5
I0705 15:19:40.087671 26103 net.cpp:367] relu3_5 -> conv3_5 (in-place)
I0705 15:19:40.087920 26103 net.cpp:122] Setting up relu3_5
I0705 15:19:40.087939 26103 net.cpp:129] Top shape: 1 256 32 32 (262144)
I0705 15:19:40.087949 26103 net.cpp:137] Memory required for data: 29044736
I0705 15:19:40.087960 26103 layer_factory.hpp:77] Creating layer conv3_6
I0705 15:19:40.087986 26103 net.cpp:84] Creating Layer conv3_6
I0705 15:19:40.088001 26103 net.cpp:406] conv3_6 <- conv3_5
I0705 15:19:40.088017 26103 net.cpp:380] conv3_6 -> conv3_6
I0705 15:19:40.210261 26103 net.cpp:122] Setting up conv3_6
I0705 15:19:40.210301 26103 net.cpp:129] Top shape: 1 256 32 32 (262144)
I0705 15:19:40.210340 26103 net.cpp:137] Memory required for data: 30093312
I0705 15:19:40.210392 26103 layer_factory.hpp:77] Creating layer relu3_6
I0705 15:19:40.210433 26103 net.cpp:84] Creating Layer relu3_6
I0705 15:19:40.210467 26103 net.cpp:406] relu3_6 <- conv3_6
I0705 15:19:40.210505 26103 net.cpp:367] relu3_6 -> conv3_6 (in-place)
I0705 15:19:40.211079 26103 net.cpp:122] Setting up relu3_6
I0705 15:19:40.211097 26103 net.cpp:129] Top shape: 1 256 32 32 (262144)
I0705 15:19:40.211108 26103 net.cpp:137] Memory required for data: 31141888
I0705 15:19:40.211113 26103 layer_factory.hpp:77] Creating layer conv
I0705 15:19:40.211132 26103 net.cpp:84] Creating Layer conv
I0705 15:19:40.211136 26103 net.cpp:406] conv <- conv3_6
I0705 15:19:40.211143 26103 net.cpp:380] conv -> estdmap
I0705 15:19:40.212393 26103 net.cpp:122] Setting up conv
I0705 15:19:40.212412 26103 net.cpp:129] Top shape: 1 1 32 32 (1024)
I0705 15:19:40.212417 26103 net.cpp:137] Memory required for data: 31145984
I0705 15:19:40.212426 26103 layer_factory.hpp:77] Creating layer estdmap_conv_0_split
I0705 15:19:40.212435 26103 net.cpp:84] Creating Layer estdmap_conv_0_split
I0705 15:19:40.212440 26103 net.cpp:406] estdmap_conv_0_split <- estdmap
I0705 15:19:40.212445 26103 net.cpp:380] estdmap_conv_0_split -> estdmap_conv_0_split_0
I0705 15:19:40.212453 26103 net.cpp:380] estdmap_conv_0_split -> estdmap_conv_0_split_1
I0705 15:19:40.212512 26103 net.cpp:122] Setting up estdmap_conv_0_split
I0705 15:19:40.212530 26103 net.cpp:129] Top shape: 1 1 32 32 (1024)
I0705 15:19:40.212541 26103 net.cpp:129] Top shape: 1 1 32 32 (1024)
I0705 15:19:40.212548 26103 net.cpp:137] Memory required for data: 31154176
I0705 15:19:40.212554 26103 layer_factory.hpp:77] Creating layer re_gtcount
I0705 15:19:40.212572 26103 net.cpp:84] Creating Layer re_gtcount
I0705 15:19:40.212589 26103 net.cpp:406] re_gtcount <- dmap_crowd_1_split_0
I0705 15:19:40.212604 26103 net.cpp:380] re_gtcount -> gtcount
I0705 15:19:40.212694 26103 net.cpp:122] Setting up re_gtcount
I0705 15:19:40.212707 26103 net.cpp:129] Top shape: 1 (1)
I0705 15:19:40.212712 26103 net.cpp:137] Memory required for data: 31154180
I0705 15:19:40.212715 26103 layer_factory.hpp:77] Creating layer re_estcount
I0705 15:19:40.212725 26103 net.cpp:84] Creating Layer re_estcount
I0705 15:19:40.212730 26103 net.cpp:406] re_estcount <- estdmap_conv_0_split_0
I0705 15:19:40.212736 26103 net.cpp:380] re_estcount -> estcount
I0705 15:19:40.212816 26103 net.cpp:122] Setting up re_estcount
I0705 15:19:40.212828 26103 net.cpp:129] Top shape: 1 (1)
I0705 15:19:40.212832 26103 net.cpp:137] Memory required for data: 31154184
I0705 15:19:40.212836 26103 layer_factory.hpp:77] Creating layer loss
I0705 15:19:40.212846 26103 net.cpp:84] Creating Layer loss
I0705 15:19:40.212852 26103 net.cpp:406] loss <- estdmap_conv_0_split_1
I0705 15:19:40.212857 26103 net.cpp:406] loss <- dmap_crowd_1_split_1
I0705 15:19:40.212862 26103 net.cpp:380] loss -> loss
…
