…
I0710 17:59:22.737314 31476 net.cpp:294] The NetState phase (0) differed from the phase (1) specified by a rule in layer crowd
I0710 17:59:22.737485 31476 net.cpp:51] Initializing net from parameters: 
name: "MCNN_pretrain1"
state {
  phase: TRAIN
  level: 0
  stage: ""
}
layer {
  name: "crowd"
  type: "CrowdData"
  top: "image"
  top: "dmap"
  include {
    phase: TRAIN
  }
  transform_param {
    scale: 1
  }
  data_param {
    prefetch: 1
  }
  image_data_param {
    source: "data/part_A_final/train_data/map.txt"
    batch_size: 1
    root_folder: "data/part_A_final/train_data/"
    neighbor_num: 2
    ksize_param: 1
    sigma_param: 0.06
  }
}
layer {
  name: "conv1_1"
  type: "Convolution"
  bottom: "image"
  top: "conv1_1"
  param {
    lr_mult: 1
  }
  param {
    lr_mult: 2
  }
  convolution_param {
    num_output: 64
    pad: 2
    kernel_size: 5
    stride: 1
    weight_filler {
      type: "gaussian"
      std: 0.01
    }
    bias_filler {
      type: "constant"
      value: 0
    }
  }
}
layer {
  name: "relu1_1"
  type: "ReLU"
  bottom: "conv1_1"
  top: "conv1_1"
}
layer {
  name: "conv1_2"
  type: "Convolution"
  bottom: "conv1_1"
  top: "conv1_2"
  param {
    lr_mult: 1
  }
  param {
    lr_mult: 2
  }
  convolution_param {
    num_output: 64
    pad: 2
    kernel_size: 5
    stride: 1
    weight_filler {
      type: "gaussian"
      std: 0.01
    }
    bias_filler {
      type: "constant"
      value: 0
    }
  }
}
layer {
  name: "relu1_2"
  type: "ReLU"
  bottom: "conv1_2"
  top: "conv1_2"
}
layer {
  name: "pool1_2"
  type: "Pooling"
  bottom: "conv1_2"
  top: "pool1_2"
  pooling_param {
    pool: MAX
    kernel_size: 2
    stride: 2
  }
}
layer {
  name: "conv1_3"
  type: "Convolution"
  bottom: "pool1_2"
  top: "conv1_3"
  param {
    lr_mult: 1
  }
  param {
    lr_mult: 2
  }
  convolution_param {
    num_output: 128
    pad: 2
    kernel_size: 5
    stride: 1
    weight_filler {
      type: "gaussian"
      std: 0.01
    }
    bias_filler {
      type: "constant"
      value: 0
    }
  }
}
layer {
  name: "relu1_3"
  type: "ReLU"
  bottom: "conv1_3"
  top: "conv1_3"
}
layer {
  name: "conv1_4"
  type: "Convolution"
  bottom: "conv1_3"
  top: "conv1_4"
  param {
    lr_mult: 1
  }
  param {
    lr_mult: 2
  }
  convolution_param {
    num_output: 128
    pad: 2
    kernel_size: 5
    stride: 1
    weight_filler {
      type: "gaussian"
      std: 0.01
    }
    bias_filler {
      type: "constant"
      value: 0
    }
  }
}
layer {
  name: "relu1_4"
  type: "ReLU"
  bottom: "conv1_4"
  top: "conv1_4"
}
layer {
  name: "pool1_4"
  type: "Pooling"
  bottom: "conv1_4"
  top: "pool1_4"
  pooling_param {
    pool: MAX
    kernel_size: 2
    stride: 2
  }
}
layer {
  name: "conv1_5"
  type: "Convolution"
  bottom: "pool1_4"
  top: "conv1_5"
  param {
    lr_mult: 1
  }
  param {
    lr_mult: 2
  }
  convolution_param {
    num_output: 256
    pad: 1
    kernel_size: 3
    stride: 1
    weight_filler {
      type: "gaussian"
      std: 0.01
    }
    bias_filler {
      type: "constant"
      value: 0
    }
  }
}
layer {
  name: "relu1_5"
  type: "ReLU"
  bottom: "conv1_5"
  top: "conv1_5"
}
layer {
  name: "conv1_6"
  type: "Convolution"
  bottom: "conv1_5"
  top: "conv1_6"
  param {
    lr_mult: 1
  }
  param {
    lr_mult: 2
  }
  convolution_param {
    num_output: 256
    pad: 1
    kernel_size: 3
    stride: 1
    weight_filler {
      type: "gaussian"
      std: 0.01
    }
    bias_filler {
      type: "constant"
      value: 0
    }
  }
}
layer {
  name: "relu1_6"
  type: "ReLU"
  bottom: "conv1_6"
  top: "conv1_6"
}
layer {
  name: "conv"
  type: "Convolution"
  bottom: "conv1_6"
  top: "estdmap"
  convolution_param {
    num_output: 1
    kernel_size: 1
    weight_filler {
      type: "gaussian"
      std: 0.01
    }
  }
}
layer {
  name: "re_gtcount"
  type: "Reduction"
  bottom: "dmap"
  top: "gtcount"
  loss_weight: 0
  propagate_down: false
  reduction_param {
    axis: 1
  }
}
layer {
  name: "re_estcount"
  type: "Reduction"
  bottom: "estdmap"
  top: "estcount"
  loss_weight: 0
  propagate_down: false
  reduction_param {
    axis: 1
  }
}
layer {
  name: "loss"
  type: "EuclideanLoss"
  bottom: "estdmap"
  bottom: "dmap"
  top: "loss"
}
layer {
  name: "loss2"
  type: "EuclideanLoss"
  bottom: "gtcount"
  bottom: "estcount"
  top: "loss2"
  loss_weight: 0
  propagate_down: false
  propagate_down: false
}
I0710 17:59:22.737653 31476 layer_factory.hpp:77] Creating layer crowd
I0710 17:59:22.737689 31476 base_data_layer.cpp:41] prefetch_.size(): 1
I0710 17:59:22.737713 31476 net.cpp:84] Creating Layer crowd
I0710 17:59:22.737727 31476 net.cpp:380] crowd -> image
I0710 17:59:22.737759 31476 net.cpp:380] crowd -> dmap
I0710 17:59:22.746611 31476 crowd_data_layer.cpp:493] output crowd image size: 1,3,128,128
I0710 17:59:22.746652 31476 crowd_data_layer.cpp:503] output density map size: 1,1,32,32
I0710 17:59:22.749279 31476 net.cpp:122] Setting up crowd
I0710 17:59:22.749300 31476 net.cpp:129] Top shape: 1 3 128 128 (49152)
I0710 17:59:22.749306 31476 net.cpp:129] Top shape: 1 1 32 32 (1024)
I0710 17:59:22.749310 31476 net.cpp:137] Memory required for data: 200704
I0710 17:59:22.749318 31476 layer_factory.hpp:77] Creating layer dmap_crowd_1_split
I0710 17:59:22.749339 31476 net.cpp:84] Creating Layer dmap_crowd_1_split
I0710 17:59:22.749382 31476 net.cpp:406] dmap_crowd_1_split <- dmap
I0710 17:59:22.749433 31476 net.cpp:380] dmap_crowd_1_split -> dmap_crowd_1_split_0
I0710 17:59:22.749472 31476 net.cpp:380] dmap_crowd_1_split -> dmap_crowd_1_split_1
I0710 17:59:22.749557 31476 net.cpp:122] Setting up dmap_crowd_1_split
I0710 17:59:22.749572 31476 net.cpp:129] Top shape: 1 1 32 32 (1024)
I0710 17:59:22.749579 31476 net.cpp:129] Top shape: 1 1 32 32 (1024)
I0710 17:59:22.749585 31476 net.cpp:137] Memory required for data: 208896
I0710 17:59:22.749593 31476 layer_factory.hpp:77] Creating layer conv1_1
I0710 17:59:22.749619 31476 net.cpp:84] Creating Layer conv1_1
I0710 17:59:22.749630 31476 net.cpp:406] conv1_1 <- image
I0710 17:59:22.749641 31476 net.cpp:380] conv1_1 -> conv1_1
I0710 17:59:23.573067 31476 net.cpp:122] Setting up conv1_1
I0710 17:59:23.573108 31476 net.cpp:129] Top shape: 1 64 128 128 (1048576)
I0710 17:59:23.573117 31476 net.cpp:137] Memory required for data: 4403200
I0710 17:59:23.573146 31476 layer_factory.hpp:77] Creating layer relu1_1
I0710 17:59:23.573170 31476 net.cpp:84] Creating Layer relu1_1
I0710 17:59:23.573210 31476 net.cpp:406] relu1_1 <- conv1_1
I0710 17:59:23.573245 31476 net.cpp:367] relu1_1 -> conv1_1 (in-place)
I0710 17:59:23.573746 31476 net.cpp:122] Setting up relu1_1
I0710 17:59:23.573765 31476 net.cpp:129] Top shape: 1 64 128 128 (1048576)
I0710 17:59:23.573771 31476 net.cpp:137] Memory required for data: 8597504
I0710 17:59:23.573779 31476 layer_factory.hpp:77] Creating layer conv1_2
I0710 17:59:23.573803 31476 net.cpp:84] Creating Layer conv1_2
I0710 17:59:23.573830 31476 net.cpp:406] conv1_2 <- conv1_1
I0710 17:59:23.573863 31476 net.cpp:380] conv1_2 -> conv1_2
I0710 17:59:23.579407 31476 net.cpp:122] Setting up conv1_2
I0710 17:59:23.579427 31476 net.cpp:129] Top shape: 1 64 128 128 (1048576)
I0710 17:59:23.579432 31476 net.cpp:137] Memory required for data: 12791808
I0710 17:59:23.579442 31476 layer_factory.hpp:77] Creating layer relu1_2
I0710 17:59:23.579448 31476 net.cpp:84] Creating Layer relu1_2
I0710 17:59:23.579452 31476 net.cpp:406] relu1_2 <- conv1_2
I0710 17:59:23.579458 31476 net.cpp:367] relu1_2 -> conv1_2 (in-place)
I0710 17:59:23.579641 31476 net.cpp:122] Setting up relu1_2
I0710 17:59:23.579670 31476 net.cpp:129] Top shape: 1 64 128 128 (1048576)
I0710 17:59:23.579675 31476 net.cpp:137] Memory required for data: 16986112
I0710 17:59:23.579679 31476 layer_factory.hpp:77] Creating layer pool1_2
I0710 17:59:23.579691 31476 net.cpp:84] Creating Layer pool1_2
I0710 17:59:23.579700 31476 net.cpp:406] pool1_2 <- conv1_2
I0710 17:59:23.579710 31476 net.cpp:380] pool1_2 -> pool1_2
I0710 17:59:23.579774 31476 net.cpp:122] Setting up pool1_2
I0710 17:59:23.579785 31476 net.cpp:129] Top shape: 1 64 64 64 (262144)
I0710 17:59:23.579788 31476 net.cpp:137] Memory required for data: 18034688
I0710 17:59:23.579794 31476 layer_factory.hpp:77] Creating layer conv1_3
I0710 17:59:23.579807 31476 net.cpp:84] Creating Layer conv1_3
I0710 17:59:23.579840 31476 net.cpp:406] conv1_3 <- pool1_2
I0710 17:59:23.579861 31476 net.cpp:380] conv1_3 -> conv1_3
I0710 17:59:23.589699 31476 net.cpp:122] Setting up conv1_3
I0710 17:59:23.589720 31476 net.cpp:129] Top shape: 1 128 64 64 (524288)
I0710 17:59:23.589727 31476 net.cpp:137] Memory required for data: 20131840
I0710 17:59:23.589745 31476 layer_factory.hpp:77] Creating layer relu1_3
I0710 17:59:23.589758 31476 net.cpp:84] Creating Layer relu1_3
I0710 17:59:23.589766 31476 net.cpp:406] relu1_3 <- conv1_3
I0710 17:59:23.589776 31476 net.cpp:367] relu1_3 -> conv1_3 (in-place)
I0710 17:59:23.590270 31476 net.cpp:122] Setting up relu1_3
I0710 17:59:23.590287 31476 net.cpp:129] Top shape: 1 128 64 64 (524288)
I0710 17:59:23.590294 31476 net.cpp:137] Memory required for data: 22228992
I0710 17:59:23.590301 31476 layer_factory.hpp:77] Creating layer conv1_4
I0710 17:59:23.590322 31476 net.cpp:84] Creating Layer conv1_4
I0710 17:59:23.590329 31476 net.cpp:406] conv1_4 <- conv1_3
I0710 17:59:23.590342 31476 net.cpp:380] conv1_4 -> conv1_4
I0710 17:59:23.605726 31476 net.cpp:122] Setting up conv1_4
I0710 17:59:23.605748 31476 net.cpp:129] Top shape: 1 128 64 64 (524288)
I0710 17:59:23.605756 31476 net.cpp:137] Memory required for data: 24326144
I0710 17:59:23.605767 31476 layer_factory.hpp:77] Creating layer relu1_4
I0710 17:59:23.605779 31476 net.cpp:84] Creating Layer relu1_4
I0710 17:59:23.605787 31476 net.cpp:406] relu1_4 <- conv1_4
I0710 17:59:23.605798 31476 net.cpp:367] relu1_4 -> conv1_4 (in-place)
I0710 17:59:23.606302 31476 net.cpp:122] Setting up relu1_4
I0710 17:59:23.606319 31476 net.cpp:129] Top shape: 1 128 64 64 (524288)
I0710 17:59:23.606326 31476 net.cpp:137] Memory required for data: 26423296
I0710 17:59:23.606335 31476 layer_factory.hpp:77] Creating layer pool1_4
I0710 17:59:23.606348 31476 net.cpp:84] Creating Layer pool1_4
I0710 17:59:23.606355 31476 net.cpp:406] pool1_4 <- conv1_4
I0710 17:59:23.606366 31476 net.cpp:380] pool1_4 -> pool1_4
I0710 17:59:23.606426 31476 net.cpp:122] Setting up pool1_4
I0710 17:59:23.606437 31476 net.cpp:129] Top shape: 1 128 32 32 (131072)
I0710 17:59:23.606444 31476 net.cpp:137] Memory required for data: 26947584
I0710 17:59:23.606451 31476 layer_factory.hpp:77] Creating layer conv1_5
I0710 17:59:23.606468 31476 net.cpp:84] Creating Layer conv1_5
I0710 17:59:23.606485 31476 net.cpp:406] conv1_5 <- pool1_4
I0710 17:59:23.606498 31476 net.cpp:380] conv1_5 -> conv1_5
I0710 17:59:23.619211 31476 net.cpp:122] Setting up conv1_5
I0710 17:59:23.619235 31476 net.cpp:129] Top shape: 1 256 32 32 (262144)
I0710 17:59:23.619242 31476 net.cpp:137] Memory required for data: 27996160
I0710 17:59:23.619272 31476 layer_factory.hpp:77] Creating layer relu1_5
I0710 17:59:23.619285 31476 net.cpp:84] Creating Layer relu1_5
I0710 17:59:23.619293 31476 net.cpp:406] relu1_5 <- conv1_5
I0710 17:59:23.619303 31476 net.cpp:367] relu1_5 -> conv1_5 (in-place)
I0710 17:59:23.619513 31476 net.cpp:122] Setting up relu1_5
I0710 17:59:23.619529 31476 net.cpp:129] Top shape: 1 256 32 32 (262144)
I0710 17:59:23.619534 31476 net.cpp:137] Memory required for data: 29044736
I0710 17:59:23.619541 31476 layer_factory.hpp:77] Creating layer conv1_6
I0710 17:59:23.619561 31476 net.cpp:84] Creating Layer conv1_6
I0710 17:59:23.619578 31476 net.cpp:406] conv1_6 <- conv1_5
I0710 17:59:23.619616 31476 net.cpp:380] conv1_6 -> conv1_6
I0710 17:59:23.641580 31476 net.cpp:122] Setting up conv1_6
I0710 17:59:23.641607 31476 net.cpp:129] Top shape: 1 256 32 32 (262144)
I0710 17:59:23.641613 31476 net.cpp:137] Memory required for data: 30093312
I0710 17:59:23.641628 31476 layer_factory.hpp:77] Creating layer relu1_6
I0710 17:59:23.641639 31476 net.cpp:84] Creating Layer relu1_6
I0710 17:59:23.641649 31476 net.cpp:406] relu1_6 <- conv1_6
I0710 17:59:23.641659 31476 net.cpp:367] relu1_6 -> conv1_6 (in-place)
I0710 17:59:23.642153 31476 net.cpp:122] Setting up relu1_6
I0710 17:59:23.642170 31476 net.cpp:129] Top shape: 1 256 32 32 (262144)
I0710 17:59:23.642177 31476 net.cpp:137] Memory required for data: 31141888
I0710 17:59:23.642184 31476 layer_factory.hpp:77] Creating layer conv
I0710 17:59:23.642207 31476 net.cpp:84] Creating Layer conv
I0710 17:59:23.642222 31476 net.cpp:406] conv <- conv1_6
I0710 17:59:23.642235 31476 net.cpp:380] conv -> estdmap
I0710 17:59:23.644081 31476 net.cpp:122] Setting up conv
I0710 17:59:23.644099 31476 net.cpp:129] Top shape: 1 1 32 32 (1024)
I0710 17:59:23.644106 31476 net.cpp:137] Memory required for data: 31145984
I0710 17:59:23.644119 31476 layer_factory.hpp:77] Creating layer estdmap_conv_0_split
I0710 17:59:23.644129 31476 net.cpp:84] Creating Layer estdmap_conv_0_split
I0710 17:59:23.644137 31476 net.cpp:406] estdmap_conv_0_split <- estdmap
I0710 17:59:23.644147 31476 net.cpp:380] estdmap_conv_0_split -> estdmap_conv_0_split_0
I0710 17:59:23.644160 31476 net.cpp:380] estdmap_conv_0_split -> estdmap_conv_0_split_1
I0710 17:59:23.644212 31476 net.cpp:122] Setting up estdmap_conv_0_split
I0710 17:59:23.644225 31476 net.cpp:129] Top shape: 1 1 32 32 (1024)
I0710 17:59:23.644234 31476 net.cpp:129] Top shape: 1 1 32 32 (1024)
I0710 17:59:23.644240 31476 net.cpp:137] Memory required for data: 31154176
I0710 17:59:23.644246 31476 layer_factory.hpp:77] Creating layer re_gtcount
I0710 17:59:23.644259 31476 net.cpp:84] Creating Layer re_gtcount
I0710 17:59:23.644266 31476 net.cpp:406] re_gtcount <- dmap_crowd_1_split_0
I0710 17:59:23.644278 31476 net.cpp:380] re_gtcount -> gtcount
I0710 17:59:23.644356 31476 net.cpp:122] Setting up re_gtcount
I0710 17:59:23.644369 31476 net.cpp:129] Top shape: 1 (1)
I0710 17:59:23.644376 31476 net.cpp:137] Memory required for data: 31154180
I0710 17:59:23.644381 31476 layer_factory.hpp:77] Creating layer re_estcount
I0710 17:59:23.644392 31476 net.cpp:84] Creating Layer re_estcount
I0710 17:59:23.644398 31476 net.cpp:406] re_estcount <- estdmap_conv_0_split_0
I0710 17:59:23.644409 31476 net.cpp:380] re_estcount -> estcount
I0710 17:59:23.644471 31476 net.cpp:122] Setting up re_estcount
I0710 17:59:23.644484 31476 net.cpp:129] Top shape: 1 (1)
I0710 17:59:23.644490 31476 net.cpp:137] Memory required for data: 31154184
I0710 17:59:23.644495 31476 layer_factory.hpp:77] Creating layer loss
I0710 17:59:23.644510 31476 net.cpp:84] Creating Layer loss
I0710 17:59:23.644517 31476 net.cpp:406] loss <- estdmap_conv_0_split_1
I0710 17:59:23.644526 31476 net.cpp:406] loss <- dmap_crowd_1_split_1
I0710 17:59:23.644536 31476 net.cpp:380] loss -> loss
…
