…
I1220 18:42:15.666052  6281 net.cpp:294] The NetState phase (0) differed from the phase (1) specified by a rule in layer crowd
I1220 18:42:15.666298  6281 net.cpp:51] Initializing net from parameters: 
name: "CrowdCount"
state {
  phase: TRAIN
  level: 0
  stage: ""
}
layer {
  name: "crowd"
  type: "CrowdData"
  top: "image"
  top: "dmap"
  include {
    phase: TRAIN
  }
  transform_param {
    scale: 1
  }
  image_data_param {
    source: "/home/zhangting/crowd_count/CWCC/CwCC_v2.0/test/crowd1_5_train.txt"
    batch_size: 1
    shuffle: false
    root_folder: "/ssd/wangmaorui/data/"
    downsamp_times: 2
    times_split: 0
    neighbor_num: 5
  }
}
layer {
  name: "conv1_1"
  type: "Convolution"
  bottom: "image"
  top: "conv1_1"
  param {
    lr_mult: 1
  }
  param {
    lr_mult: 2
  }
  convolution_param {
    num_output: 64
    pad: 2
    kernel_size: 5
    stride: 1
    weight_filler {
      type: "gaussian"
      std: 0.01
    }
    bias_filler {
      type: "constant"
      value: 0
    }
  }
}
layer {
  name: "relu1_1"
  type: "ReLU"
  bottom: "conv1_1"
  top: "conv1_1"
}
layer {
  name: "conv1_2"
  type: "Convolution"
  bottom: "conv1_1"
  top: "conv1_2"
  param {
    lr_mult: 1
  }
  param {
    lr_mult: 2
  }
  convolution_param {
    num_output: 64
    pad: 2
    kernel_size: 5
    stride: 1
    weight_filler {
      type: "gaussian"
      std: 0.01
    }
    bias_filler {
      type: "constant"
      value: 0
    }
  }
}
layer {
  name: "relu1_2"
  type: "ReLU"
  bottom: "conv1_2"
  top: "conv1_2"
}
layer {
  name: "pool1_2"
  type: "Pooling"
  bottom: "conv1_2"
  top: "pool1_2"
  pooling_param {
    pool: MAX
    kernel_size: 2
    stride: 2
  }
}
layer {
  name: "conv1_3"
  type: "Convolution"
  bottom: "pool1_2"
  top: "conv1_3"
  param {
    lr_mult: 1
  }
  param {
    lr_mult: 2
  }
  convolution_param {
    num_output: 128
    pad: 2
    kernel_size: 5
    stride: 1
    weight_filler {
      type: "gaussian"
      std: 0.01
    }
    bias_filler {
      type: "constant"
      value: 0
    }
  }
}
layer {
  name: "relu1_3"
  type: "ReLU"
  bottom: "conv1_3"
  top: "conv1_3"
}
layer {
  name: "conv1_4"
  type: "Convolution"
  bottom: "conv1_3"
  top: "conv1_4"
  param {
    lr_mult: 1
  }
  param {
    lr_mult: 2
  }
  convolution_param {
    num_output: 128
    pad: 2
    kernel_size: 5
    stride: 1
    weight_filler {
      type: "gaussian"
      std: 0.01
    }
    bias_filler {
      type: "constant"
      value: 0
    }
  }
}
layer {
  name: "relu1_4"
  type: "ReLU"
  bottom: "conv1_4"
  top: "conv1_4"
}
layer {
  name: "pool1_4"
  type: "Pooling"
  bottom: "conv1_4"
  top: "pool1_4"
  pooling_param {
    pool: MAX
    kernel_size: 2
    stride: 2
  }
}
layer {
  name: "conv1_5"
  type: "Convolution"
  bottom: "pool1_4"
  top: "conv1_5"
  param {
    lr_mult: 1
  }
  param {
    lr_mult: 2
  }
  convolution_param {
    num_output: 256
    pad: 1
    kernel_size: 3
    stride: 1
    weight_filler {
      type: "gaussian"
      std: 0.01
    }
    bias_filler {
      type: "constant"
      value: 0
    }
  }
}
layer {
  name: "relu1_5"
  type: "ReLU"
  bottom: "conv1_5"
  top: "conv1_5"
}
layer {
  name: "conv1_6"
  type: "Convolution"
  bottom: "conv1_5"
  top: "conv1_6"
  param {
    lr_mult: 1
  }
  param {
    lr_mult: 2
  }
  convolution_param {
    num_output: 256
    pad: 1
    kernel_size: 3
    stride: 1
    weight_filler {
      type: "gaussian"
      std: 0.01
    }
    bias_filler {
      type: "constant"
      value: 0
    }
  }
}
layer {
  name: "relu1_6"
  type: "ReLU"
  bottom: "conv1_6"
  top: "conv1_6"
}
layer {
  name: "conv"
  type: "Convolution"
  bottom: "conv1_6"
  top: "estdmap"
  convolution_param {
    num_output: 1
    kernel_size: 1
    weight_filler {
      type: "gaussian"
      std: 0.01
    }
  }
}
layer {
  name: "re_gtcount"
  type: "Reduction"
  bottom: "dmap"
  top: "gtcount"
  reduction_param {
    axis: 1
  }
}
layer {
  name: "re_estcount"
  type: "Reduction"
  bottom: "estdmap"
  top: "estcount"
  reduction_param {
    axis: 1
  }
}
layer {
  name: "re_estcount_1"
  type: "Reduction"
  bottom: "estdmap"
  top: "estcount_1"
  reduction_param {
    axis: 1
  }
}
layer {
  name: "re_gtcount_1"
  type: "Reduction"
  bottom: "dmap"
  top: "gtcount_1"
  reduction_param {
    axis: 1
  }
}
layer {
  name: "loss"
  type: "EuclideanLoss"
  bottom: "estdmap"
  bottom: "dmap"
  top: "loss"
}
layer {
  name: "loss2"
  type: "EuclideanLoss"
  bottom: "gtcount"
  bottom: "estcount"
  top: "loss2"
  loss_weight: 4e-05
}
I1220 18:42:15.666628  6281 layer_factory.hpp:77] Creating layer crowd
I1220 18:42:15.666674  6281 base_data_layer.cpp:41] prefetch_.size(): 4
I1220 18:42:15.666698  6281 net.cpp:84] Creating Layer crowd
I1220 18:42:15.666710  6281 net.cpp:380] crowd -> image
I1220 18:42:15.666740  6281 net.cpp:380] crowd -> dmap
I1220 18:42:15.851016  6281 crowd_data_layer.cpp:149] A total of 21182 crowd images.
I1220 18:42:15.871574  6281 net.cpp:122] Setting up crowd
I1220 18:42:15.871613  6281 net.cpp:129] Top shape: 1 3 128 128 (49152)
I1220 18:42:15.871621  6281 net.cpp:129] Top shape: 1 1 32 32 (1024)
I1220 18:42:15.871625  6281 net.cpp:137] Memory required for data: 200704
I1220 18:42:15.871640  6281 layer_factory.hpp:77] Creating layer dmap_crowd_1_split
I1220 18:42:15.871676  6281 net.cpp:84] Creating Layer dmap_crowd_1_split
I1220 18:42:15.871688  6281 net.cpp:406] dmap_crowd_1_split <- dmap
I1220 18:42:15.871709  6281 net.cpp:380] dmap_crowd_1_split -> dmap_crowd_1_split_0
I1220 18:42:15.871731  6281 net.cpp:380] dmap_crowd_1_split -> dmap_crowd_1_split_1
I1220 18:42:15.871742  6281 net.cpp:380] dmap_crowd_1_split -> dmap_crowd_1_split_2
I1220 18:42:15.871819  6281 net.cpp:122] Setting up dmap_crowd_1_split
I1220 18:42:15.871829  6281 net.cpp:129] Top shape: 1 1 32 32 (1024)
I1220 18:42:15.871835  6281 net.cpp:129] Top shape: 1 1 32 32 (1024)
I1220 18:42:15.871843  6281 net.cpp:129] Top shape: 1 1 32 32 (1024)
I1220 18:42:15.871848  6281 net.cpp:137] Memory required for data: 212992
I1220 18:42:15.871855  6281 layer_factory.hpp:77] Creating layer conv1_1
I1220 18:42:15.871886  6281 net.cpp:84] Creating Layer conv1_1
I1220 18:42:15.871894  6281 net.cpp:406] conv1_1 <- image
I1220 18:42:15.871906  6281 net.cpp:380] conv1_1 -> conv1_1
I1220 18:42:17.020759  6281 net.cpp:122] Setting up conv1_1
I1220 18:42:17.020804  6281 net.cpp:129] Top shape: 1 64 128 128 (1048576)
I1220 18:42:17.020812  6281 net.cpp:137] Memory required for data: 4407296
I1220 18:42:17.020830  6281 layer_factory.hpp:77] Creating layer relu1_1
I1220 18:42:17.020849  6281 net.cpp:84] Creating Layer relu1_1
I1220 18:42:17.020859  6281 net.cpp:406] relu1_1 <- conv1_1
I1220 18:42:17.020867  6281 net.cpp:367] relu1_1 -> conv1_1 (in-place)
I1220 18:42:17.021930  6281 net.cpp:122] Setting up relu1_1
I1220 18:42:17.021948  6281 net.cpp:129] Top shape: 1 64 128 128 (1048576)
I1220 18:42:17.021953  6281 net.cpp:137] Memory required for data: 8601600
I1220 18:42:17.021958  6281 layer_factory.hpp:77] Creating layer conv1_2
I1220 18:42:17.021975  6281 net.cpp:84] Creating Layer conv1_2
I1220 18:42:17.021982  6281 net.cpp:406] conv1_2 <- conv1_1
I1220 18:42:17.021991  6281 net.cpp:380] conv1_2 -> conv1_2
I1220 18:42:17.028290  6281 net.cpp:122] Setting up conv1_2
I1220 18:42:17.028308  6281 net.cpp:129] Top shape: 1 64 128 128 (1048576)
I1220 18:42:17.028313  6281 net.cpp:137] Memory required for data: 12795904
I1220 18:42:17.028324  6281 layer_factory.hpp:77] Creating layer relu1_2
I1220 18:42:17.028334  6281 net.cpp:84] Creating Layer relu1_2
I1220 18:42:17.028342  6281 net.cpp:406] relu1_2 <- conv1_2
I1220 18:42:17.028381  6281 net.cpp:367] relu1_2 -> conv1_2 (in-place)
I1220 18:42:17.028618  6281 net.cpp:122] Setting up relu1_2
I1220 18:42:17.028630  6281 net.cpp:129] Top shape: 1 64 128 128 (1048576)
I1220 18:42:17.028635  6281 net.cpp:137] Memory required for data: 16990208
I1220 18:42:17.028640  6281 layer_factory.hpp:77] Creating layer pool1_2
I1220 18:42:17.028647  6281 net.cpp:84] Creating Layer pool1_2
I1220 18:42:17.028651  6281 net.cpp:406] pool1_2 <- conv1_2
I1220 18:42:17.028658  6281 net.cpp:380] pool1_2 -> pool1_2
I1220 18:42:17.028717  6281 net.cpp:122] Setting up pool1_2
I1220 18:42:17.028726  6281 net.cpp:129] Top shape: 1 64 64 64 (262144)
I1220 18:42:17.028733  6281 net.cpp:137] Memory required for data: 18038784
I1220 18:42:17.028739  6281 layer_factory.hpp:77] Creating layer conv1_3
I1220 18:42:17.028760  6281 net.cpp:84] Creating Layer conv1_3
I1220 18:42:17.028767  6281 net.cpp:406] conv1_3 <- pool1_2
I1220 18:42:17.028775  6281 net.cpp:380] conv1_3 -> conv1_3
I1220 18:42:17.038125  6281 net.cpp:122] Setting up conv1_3
I1220 18:42:17.038144  6281 net.cpp:129] Top shape: 1 128 64 64 (524288)
I1220 18:42:17.038149  6281 net.cpp:137] Memory required for data: 20135936
I1220 18:42:17.038161  6281 layer_factory.hpp:77] Creating layer relu1_3
I1220 18:42:17.038169  6281 net.cpp:84] Creating Layer relu1_3
I1220 18:42:17.038175  6281 net.cpp:406] relu1_3 <- conv1_3
I1220 18:42:17.038184  6281 net.cpp:367] relu1_3 -> conv1_3 (in-place)
I1220 18:42:17.038457  6281 net.cpp:122] Setting up relu1_3
I1220 18:42:17.038470  6281 net.cpp:129] Top shape: 1 128 64 64 (524288)
I1220 18:42:17.038475  6281 net.cpp:137] Memory required for data: 22233088
I1220 18:42:17.038480  6281 layer_factory.hpp:77] Creating layer conv1_4
I1220 18:42:17.038493  6281 net.cpp:84] Creating Layer conv1_4
I1220 18:42:17.038498  6281 net.cpp:406] conv1_4 <- conv1_3
I1220 18:42:17.038509  6281 net.cpp:380] conv1_4 -> conv1_4
I1220 18:42:17.055502  6281 net.cpp:122] Setting up conv1_4
I1220 18:42:17.055523  6281 net.cpp:129] Top shape: 1 128 64 64 (524288)
I1220 18:42:17.055531  6281 net.cpp:137] Memory required for data: 24330240
I1220 18:42:17.055538  6281 layer_factory.hpp:77] Creating layer relu1_4
I1220 18:42:17.055574  6281 net.cpp:84] Creating Layer relu1_4
I1220 18:42:17.055596  6281 net.cpp:406] relu1_4 <- conv1_4
I1220 18:42:17.055608  6281 net.cpp:367] relu1_4 -> conv1_4 (in-place)
I1220 18:42:17.056691  6281 net.cpp:122] Setting up relu1_4
I1220 18:42:17.056710  6281 net.cpp:129] Top shape: 1 128 64 64 (524288)
I1220 18:42:17.056713  6281 net.cpp:137] Memory required for data: 26427392
I1220 18:42:17.056720  6281 layer_factory.hpp:77] Creating layer pool1_4
I1220 18:42:17.056728  6281 net.cpp:84] Creating Layer pool1_4
I1220 18:42:17.056735  6281 net.cpp:406] pool1_4 <- conv1_4
I1220 18:42:17.056743  6281 net.cpp:380] pool1_4 -> pool1_4
I1220 18:42:17.056800  6281 net.cpp:122] Setting up pool1_4
I1220 18:42:17.056808  6281 net.cpp:129] Top shape: 1 128 32 32 (131072)
I1220 18:42:17.056815  6281 net.cpp:137] Memory required for data: 26951680
I1220 18:42:17.056821  6281 layer_factory.hpp:77] Creating layer conv1_5
I1220 18:42:17.056835  6281 net.cpp:84] Creating Layer conv1_5
I1220 18:42:17.056843  6281 net.cpp:406] conv1_5 <- pool1_4
I1220 18:42:17.056850  6281 net.cpp:380] conv1_5 -> conv1_5
I1220 18:42:17.071372  6281 net.cpp:122] Setting up conv1_5
I1220 18:42:17.071396  6281 net.cpp:129] Top shape: 1 256 32 32 (262144)
I1220 18:42:17.071403  6281 net.cpp:137] Memory required for data: 28000256
I1220 18:42:17.071419  6281 layer_factory.hpp:77] Creating layer relu1_5
I1220 18:42:17.071430  6281 net.cpp:84] Creating Layer relu1_5
I1220 18:42:17.071437  6281 net.cpp:406] relu1_5 <- conv1_5
I1220 18:42:17.071447  6281 net.cpp:367] relu1_5 -> conv1_5 (in-place)
I1220 18:42:17.071728  6281 net.cpp:122] Setting up relu1_5
I1220 18:42:17.071741  6281 net.cpp:129] Top shape: 1 256 32 32 (262144)
I1220 18:42:17.071746  6281 net.cpp:137] Memory required for data: 29048832
I1220 18:42:17.071753  6281 layer_factory.hpp:77] Creating layer conv1_6
I1220 18:42:17.071796  6281 net.cpp:84] Creating Layer conv1_6
I1220 18:42:17.071805  6281 net.cpp:406] conv1_6 <- conv1_5
I1220 18:42:17.071816  6281 net.cpp:380] conv1_6 -> conv1_6
I1220 18:42:17.093757  6281 net.cpp:122] Setting up conv1_6
I1220 18:42:17.093777  6281 net.cpp:129] Top shape: 1 256 32 32 (262144)
I1220 18:42:17.093783  6281 net.cpp:137] Memory required for data: 30097408
I1220 18:42:17.093796  6281 layer_factory.hpp:77] Creating layer relu1_6
I1220 18:42:17.093804  6281 net.cpp:84] Creating Layer relu1_6
I1220 18:42:17.093811  6281 net.cpp:406] relu1_6 <- conv1_6
I1220 18:42:17.093818  6281 net.cpp:367] relu1_6 -> conv1_6 (in-place)
I1220 18:42:17.094102  6281 net.cpp:122] Setting up relu1_6
I1220 18:42:17.094115  6281 net.cpp:129] Top shape: 1 256 32 32 (262144)
I1220 18:42:17.094121  6281 net.cpp:137] Memory required for data: 31145984
I1220 18:42:17.094126  6281 layer_factory.hpp:77] Creating layer conv
I1220 18:42:17.094144  6281 net.cpp:84] Creating Layer conv
I1220 18:42:17.094151  6281 net.cpp:406] conv <- conv1_6
I1220 18:42:17.094159  6281 net.cpp:380] conv -> estdmap
I1220 18:42:17.096099  6281 net.cpp:122] Setting up conv
I1220 18:42:17.096118  6281 net.cpp:129] Top shape: 1 1 32 32 (1024)
I1220 18:42:17.096124  6281 net.cpp:137] Memory required for data: 31150080
I1220 18:42:17.096133  6281 layer_factory.hpp:77] Creating layer estdmap_conv_0_split
I1220 18:42:17.096145  6281 net.cpp:84] Creating Layer estdmap_conv_0_split
I1220 18:42:17.096153  6281 net.cpp:406] estdmap_conv_0_split <- estdmap
I1220 18:42:17.096160  6281 net.cpp:380] estdmap_conv_0_split -> estdmap_conv_0_split_0
I1220 18:42:17.096169  6281 net.cpp:380] estdmap_conv_0_split -> estdmap_conv_0_split_1
I1220 18:42:17.096179  6281 net.cpp:380] estdmap_conv_0_split -> estdmap_conv_0_split_2
I1220 18:42:17.096249  6281 net.cpp:122] Setting up estdmap_conv_0_split
I1220 18:42:17.096258  6281 net.cpp:129] Top shape: 1 1 32 32 (1024)
I1220 18:42:17.096264  6281 net.cpp:129] Top shape: 1 1 32 32 (1024)
I1220 18:42:17.096271  6281 net.cpp:129] Top shape: 1 1 32 32 (1024)
I1220 18:42:17.096276  6281 net.cpp:137] Memory required for data: 31162368
I1220 18:42:17.096282  6281 layer_factory.hpp:77] Creating layer re_gtcount
I1220 18:42:17.096292  6281 net.cpp:84] Creating Layer re_gtcount
I1220 18:42:17.096298  6281 net.cpp:406] re_gtcount <- dmap_crowd_1_split_0
I1220 18:42:17.096308  6281 net.cpp:380] re_gtcount -> gtcount
I1220 18:42:17.096369  6281 net.cpp:122] Setting up re_gtcount
I1220 18:42:17.096379  6281 net.cpp:129] Top shape: 1 (1)
I1220 18:42:17.096384  6281 net.cpp:137] Memory required for data: 31162372
I1220 18:42:17.096390  6281 layer_factory.hpp:77] Creating layer re_estcount
I1220 18:42:17.096400  6281 net.cpp:84] Creating Layer re_estcount
I1220 18:42:17.096405  6281 net.cpp:406] re_estcount <- estdmap_conv_0_split_0
I1220 18:42:17.096412  6281 net.cpp:380] re_estcount -> estcount
I1220 18:42:17.096467  6281 net.cpp:122] Setting up re_estcount
I1220 18:42:17.096474  6281 net.cpp:129] Top shape: 1 (1)
I1220 18:42:17.096479  6281 net.cpp:137] Memory required for data: 31162376
I1220 18:42:17.096484  6281 layer_factory.hpp:77] Creating layer re_estcount_1
I1220 18:42:17.096493  6281 net.cpp:84] Creating Layer re_estcount_1
I1220 18:42:17.096499  6281 net.cpp:406] re_estcount_1 <- estdmap_conv_0_split_1
I1220 18:42:17.096508  6281 net.cpp:380] re_estcount_1 -> estcount_1
I1220 18:42:17.096560  6281 net.cpp:122] Setting up re_estcount_1
I1220 18:42:17.096566  6281 net.cpp:129] Top shape: 1 (1)
I1220 18:42:17.096571  6281 net.cpp:137] Memory required for data: 31162380
I1220 18:42:17.096577  6281 layer_factory.hpp:77] Creating layer re_gtcount_1
I1220 18:42:17.096585  6281 net.cpp:84] Creating Layer re_gtcount_1
I1220 18:42:17.096590  6281 net.cpp:406] re_gtcount_1 <- dmap_crowd_1_split_1
I1220 18:42:17.096597  6281 net.cpp:380] re_gtcount_1 -> gtcount_1
I1220 18:42:17.096648  6281 net.cpp:122] Setting up re_gtcount_1
I1220 18:42:17.096655  6281 net.cpp:129] Top shape: 1 (1)
I1220 18:42:17.096660  6281 net.cpp:137] Memory required for data: 31162384
I1220 18:42:17.096683  6281 layer_factory.hpp:77] Creating layer loss
I1220 18:42:17.096700  6281 net.cpp:84] Creating Layer loss
I1220 18:42:17.096706  6281 net.cpp:406] loss <- estdmap_conv_0_split_2
I1220 18:42:17.096714  6281 net.cpp:406] loss <- dmap_crowd_1_split_2
I1220 18:42:17.096721  6281 net.cpp:380] loss -> loss
…
