…
I1220 17:45:09.040812 31469 net.cpp:294] The NetState phase (0) differed from the phase (1) specified by a rule in layer crowd
I1220 17:45:09.040982 31469 net.cpp:51] Initializing net from parameters: 
name: "CrowdCount"
state {
  phase: TRAIN
  level: 0
  stage: ""
}
layer {
  name: "crowd"
  type: "CrowdData"
  top: "image"
  top: "dmap"
  include {
    phase: TRAIN
  }
  transform_param {
    scale: 1
  }
  image_data_param {
    source: "/home/zhangting/crowd_count/CWCC/CwCC_v2.0/test/crowd1_5_train.txt"
    batch_size: 1
    shuffle: false
    root_folder: "/ssd/wangmaorui/data/"
    downsamp_times: 2
    times_split: 0
    neighbor_num: 5
  }
}
layer {
  name: "conv1_1"
  type: "Convolution"
  bottom: "image"
  top: "conv1_1"
  param {
    lr_mult: 1
  }
  param {
    lr_mult: 2
  }
  convolution_param {
    num_output: 64
    pad: 2
    kernel_size: 5
    stride: 1
    weight_filler {
      type: "gaussian"
      std: 0.01
    }
    bias_filler {
      type: "constant"
      value: 0
    }
  }
}
layer {
  name: "relu1_1"
  type: "ReLU"
  bottom: "conv1_1"
  top: "conv1_1"
}
layer {
  name: "conv1_2"
  type: "Convolution"
  bottom: "conv1_1"
  top: "conv1_2"
  param {
    lr_mult: 1
  }
  param {
    lr_mult: 2
  }
  convolution_param {
    num_output: 64
    pad: 2
    kernel_size: 5
    stride: 1
    weight_filler {
      type: "gaussian"
      std: 0.01
    }
    bias_filler {
      type: "constant"
      value: 0
    }
  }
}
layer {
  name: "relu1_2"
  type: "ReLU"
  bottom: "conv1_2"
  top: "conv1_2"
}
layer {
  name: "pool1_2"
  type: "Pooling"
  bottom: "conv1_2"
  top: "pool1_2"
  pooling_param {
    pool: MAX
    kernel_size: 2
    stride: 2
  }
}
layer {
  name: "conv1_3"
  type: "Convolution"
  bottom: "pool1_2"
  top: "conv1_3"
  param {
    lr_mult: 1
  }
  param {
    lr_mult: 2
  }
  convolution_param {
    num_output: 128
    pad: 2
    kernel_size: 5
    stride: 1
    weight_filler {
      type: "gaussian"
      std: 0.01
    }
    bias_filler {
      type: "constant"
      value: 0
    }
  }
}
layer {
  name: "relu1_3"
  type: "ReLU"
  bottom: "conv1_3"
  top: "conv1_3"
}
layer {
  name: "conv1_4"
  type: "Convolution"
  bottom: "conv1_3"
  top: "conv1_4"
  param {
    lr_mult: 1
  }
  param {
    lr_mult: 2
  }
  convolution_param {
    num_output: 128
    pad: 2
    kernel_size: 5
    stride: 1
    weight_filler {
      type: "gaussian"
      std: 0.01
    }
    bias_filler {
      type: "constant"
      value: 0
    }
  }
}
layer {
  name: "relu1_4"
  type: "ReLU"
  bottom: "conv1_4"
  top: "conv1_4"
}
layer {
  name: "pool1_4"
  type: "Pooling"
  bottom: "conv1_4"
  top: "pool1_4"
  pooling_param {
    pool: MAX
    kernel_size: 2
    stride: 2
  }
}
layer {
  name: "conv1_5"
  type: "Convolution"
  bottom: "pool1_4"
  top: "conv1_5"
  param {
    lr_mult: 1
  }
  param {
    lr_mult: 2
  }
  convolution_param {
    num_output: 256
    pad: 1
    kernel_size: 3
    stride: 1
    weight_filler {
      type: "gaussian"
      std: 0.01
    }
    bias_filler {
      type: "constant"
      value: 0
    }
  }
}
layer {
  name: "relu1_5"
  type: "ReLU"
  bottom: "conv1_5"
  top: "conv1_5"
}
layer {
  name: "conv1_6"
  type: "Convolution"
  bottom: "conv1_5"
  top: "conv1_6"
  param {
    lr_mult: 1
  }
  param {
    lr_mult: 2
  }
  convolution_param {
    num_output: 256
    pad: 1
    kernel_size: 3
    stride: 1
    weight_filler {
      type: "gaussian"
      std: 0.01
    }
    bias_filler {
      type: "constant"
      value: 0
    }
  }
}
layer {
  name: "relu1_6"
  type: "ReLU"
  bottom: "conv1_6"
  top: "conv1_6"
}
layer {
  name: "conv"
  type: "Convolution"
  bottom: "conv1_6"
  top: "estdmap"
  convolution_param {
    num_output: 1
    kernel_size: 1
    weight_filler {
      type: "gaussian"
      std: 0.01
    }
  }
}
layer {
  name: "re_gtcount"
  type: "Reduction"
  bottom: "dmap"
  top: "gtcount"
  reduction_param {
    axis: 1
  }
}
layer {
  name: "re_estcount"
  type: "Reduction"
  bottom: "estdmap"
  top: "estcount"
  reduction_param {
    axis: 1
  }
}
layer {
  name: "re_estcount_1"
  type: "Reduction"
  bottom: "estdmap"
  top: "estcount_1"
  reduction_param {
    axis: 1
  }
}
layer {
  name: "re_gtcount_1"
  type: "Reduction"
  bottom: "dmap"
  top: "gtcount_1"
  reduction_param {
    axis: 1
  }
}
layer {
  name: "loss"
  type: "EuclideanLoss"
  bottom: "estdmap"
  bottom: "dmap"
  top: "loss"
}
layer {
  name: "loss2"
  type: "EuclideanLoss"
  bottom: "gtcount"
  bottom: "estcount"
  top: "loss2"
  loss_weight: 4e-05
}
I1220 17:45:09.041257 31469 layer_factory.hpp:77] Creating layer crowd
I1220 17:45:09.041291 31469 base_data_layer.cpp:41] prefetch_.size(): 4
I1220 17:45:09.041311 31469 net.cpp:84] Creating Layer crowd
I1220 17:45:09.041321 31469 net.cpp:380] crowd -> image
I1220 17:45:09.041345 31469 net.cpp:380] crowd -> dmap
I1220 17:45:09.214424 31469 crowd_data_layer.cpp:149] A total of 21182 crowd images.
I1220 17:45:09.230981 31469 net.cpp:122] Setting up crowd
I1220 17:45:09.231014 31469 net.cpp:129] Top shape: 1 3 128 128 (49152)
I1220 17:45:09.231020 31469 net.cpp:129] Top shape: 1 1 32 32 (1024)
I1220 17:45:09.231024 31469 net.cpp:137] Memory required for data: 200704
I1220 17:45:09.231035 31469 layer_factory.hpp:77] Creating layer dmap_crowd_1_split
I1220 17:45:09.231067 31469 net.cpp:84] Creating Layer dmap_crowd_1_split
I1220 17:45:09.231078 31469 net.cpp:406] dmap_crowd_1_split <- dmap
I1220 17:45:09.231096 31469 net.cpp:380] dmap_crowd_1_split -> dmap_crowd_1_split_0
I1220 17:45:09.231112 31469 net.cpp:380] dmap_crowd_1_split -> dmap_crowd_1_split_1
I1220 17:45:09.231122 31469 net.cpp:380] dmap_crowd_1_split -> dmap_crowd_1_split_2
I1220 17:45:09.231210 31469 net.cpp:122] Setting up dmap_crowd_1_split
I1220 17:45:09.231220 31469 net.cpp:129] Top shape: 1 1 32 32 (1024)
I1220 17:45:09.231227 31469 net.cpp:129] Top shape: 1 1 32 32 (1024)
I1220 17:45:09.231235 31469 net.cpp:129] Top shape: 1 1 32 32 (1024)
I1220 17:45:09.231240 31469 net.cpp:137] Memory required for data: 212992
I1220 17:45:09.231245 31469 layer_factory.hpp:77] Creating layer conv1_1
I1220 17:45:09.231278 31469 net.cpp:84] Creating Layer conv1_1
I1220 17:45:09.231284 31469 net.cpp:406] conv1_1 <- image
I1220 17:45:09.231297 31469 net.cpp:380] conv1_1 -> conv1_1
I1220 17:45:09.266849 31481 crowd_data_layer.cpp:282] img shape 1 , 3 , 696 , 1256 , 
I1220 17:45:09.289502 31481 crowd_data_layer.cpp:298] dmp shape 1 , 1 , 174 , 314 , 
I1220 17:45:09.321277 31481 crowd_data_layer.cpp:282] img shape 1 , 3 , 672 , 1256 , 
I1220 17:45:09.337924 31481 crowd_data_layer.cpp:298] dmp shape 1 , 1 , 168 , 314 , 
I1220 17:45:09.378331 31481 crowd_data_layer.cpp:282] img shape 1 , 3 , 720 , 1280 , 
I1220 17:45:09.463969 31481 crowd_data_layer.cpp:298] dmp shape 1 , 1 , 180 , 320 , 
I1220 17:45:09.496626 31481 crowd_data_layer.cpp:282] img shape 1 , 3 , 648 , 1272 , 
I1220 17:45:09.514412 31481 crowd_data_layer.cpp:298] dmp shape 1 , 1 , 162 , 318 , 
I1220 17:45:10.385352 31469 net.cpp:122] Setting up conv1_1
I1220 17:45:10.385398 31469 net.cpp:129] Top shape: 1 64 128 128 (1048576)
I1220 17:45:10.385404 31469 net.cpp:137] Memory required for data: 4407296
I1220 17:45:10.385426 31469 layer_factory.hpp:77] Creating layer relu1_1
I1220 17:45:10.385442 31469 net.cpp:84] Creating Layer relu1_1
I1220 17:45:10.385452 31469 net.cpp:406] relu1_1 <- conv1_1
I1220 17:45:10.385462 31469 net.cpp:367] relu1_1 -> conv1_1 (in-place)
I1220 17:45:10.386579 31469 net.cpp:122] Setting up relu1_1
I1220 17:45:10.386598 31469 net.cpp:129] Top shape: 1 64 128 128 (1048576)
I1220 17:45:10.386603 31469 net.cpp:137] Memory required for data: 8601600
I1220 17:45:10.386646 31469 layer_factory.hpp:77] Creating layer conv1_2
I1220 17:45:10.386682 31469 net.cpp:84] Creating Layer conv1_2
I1220 17:45:10.386688 31469 net.cpp:406] conv1_2 <- conv1_1
I1220 17:45:10.386698 31469 net.cpp:380] conv1_2 -> conv1_2
I1220 17:45:10.393784 31469 net.cpp:122] Setting up conv1_2
I1220 17:45:10.393827 31469 net.cpp:129] Top shape: 1 64 128 128 (1048576)
I1220 17:45:10.393834 31469 net.cpp:137] Memory required for data: 12795904
I1220 17:45:10.393872 31469 layer_factory.hpp:77] Creating layer relu1_2
I1220 17:45:10.393888 31469 net.cpp:84] Creating Layer relu1_2
I1220 17:45:10.393898 31469 net.cpp:406] relu1_2 <- conv1_2
I1220 17:45:10.393908 31469 net.cpp:367] relu1_2 -> conv1_2 (in-place)
I1220 17:45:10.394176 31469 net.cpp:122] Setting up relu1_2
I1220 17:45:10.394189 31469 net.cpp:129] Top shape: 1 64 128 128 (1048576)
I1220 17:45:10.394194 31469 net.cpp:137] Memory required for data: 16990208
I1220 17:45:10.394209 31469 layer_factory.hpp:77] Creating layer pool1_2
I1220 17:45:10.394222 31469 net.cpp:84] Creating Layer pool1_2
I1220 17:45:10.394228 31469 net.cpp:406] pool1_2 <- conv1_2
I1220 17:45:10.394237 31469 net.cpp:380] pool1_2 -> pool1_2
I1220 17:45:10.394316 31469 net.cpp:122] Setting up pool1_2
I1220 17:45:10.394325 31469 net.cpp:129] Top shape: 1 64 64 64 (262144)
I1220 17:45:10.394330 31469 net.cpp:137] Memory required for data: 18038784
I1220 17:45:10.394335 31469 layer_factory.hpp:77] Creating layer conv1_3
I1220 17:45:10.394362 31469 net.cpp:84] Creating Layer conv1_3
I1220 17:45:10.394369 31469 net.cpp:406] conv1_3 <- pool1_2
I1220 17:45:10.394379 31469 net.cpp:380] conv1_3 -> conv1_3
I1220 17:45:10.407815 31469 net.cpp:122] Setting up conv1_3
I1220 17:45:10.407843 31469 net.cpp:129] Top shape: 1 128 64 64 (524288)
I1220 17:45:10.407850 31469 net.cpp:137] Memory required for data: 20135936
I1220 17:45:10.407866 31469 layer_factory.hpp:77] Creating layer relu1_3
I1220 17:45:10.407879 31469 net.cpp:84] Creating Layer relu1_3
I1220 17:45:10.407886 31469 net.cpp:406] relu1_3 <- conv1_3
I1220 17:45:10.407896 31469 net.cpp:367] relu1_3 -> conv1_3 (in-place)
I1220 17:45:10.408151 31469 net.cpp:122] Setting up relu1_3
I1220 17:45:10.408164 31469 net.cpp:129] Top shape: 1 128 64 64 (524288)
I1220 17:45:10.408170 31469 net.cpp:137] Memory required for data: 22233088
I1220 17:45:10.408179 31469 layer_factory.hpp:77] Creating layer conv1_4
I1220 17:45:10.408195 31469 net.cpp:84] Creating Layer conv1_4
I1220 17:45:10.408201 31469 net.cpp:406] conv1_4 <- conv1_3
I1220 17:45:10.408210 31469 net.cpp:380] conv1_4 -> conv1_4
I1220 17:45:10.427296 31469 net.cpp:122] Setting up conv1_4
I1220 17:45:10.427317 31469 net.cpp:129] Top shape: 1 128 64 64 (524288)
I1220 17:45:10.427325 31469 net.cpp:137] Memory required for data: 24330240
I1220 17:45:10.427333 31469 layer_factory.hpp:77] Creating layer relu1_4
I1220 17:45:10.427346 31469 net.cpp:84] Creating Layer relu1_4
I1220 17:45:10.427353 31469 net.cpp:406] relu1_4 <- conv1_4
I1220 17:45:10.427361 31469 net.cpp:367] relu1_4 -> conv1_4 (in-place)
I1220 17:45:10.428433 31469 net.cpp:122] Setting up relu1_4
I1220 17:45:10.428452 31469 net.cpp:129] Top shape: 1 128 64 64 (524288)
I1220 17:45:10.428458 31469 net.cpp:137] Memory required for data: 26427392
I1220 17:45:10.428464 31469 layer_factory.hpp:77] Creating layer pool1_4
I1220 17:45:10.428475 31469 net.cpp:84] Creating Layer pool1_4
I1220 17:45:10.428481 31469 net.cpp:406] pool1_4 <- conv1_4
I1220 17:45:10.428491 31469 net.cpp:380] pool1_4 -> pool1_4
I1220 17:45:10.428547 31469 net.cpp:122] Setting up pool1_4
I1220 17:45:10.428561 31469 net.cpp:129] Top shape: 1 128 32 32 (131072)
I1220 17:45:10.428567 31469 net.cpp:137] Memory required for data: 26951680
I1220 17:45:10.428572 31469 layer_factory.hpp:77] Creating layer conv1_5
I1220 17:45:10.428586 31469 net.cpp:84] Creating Layer conv1_5
I1220 17:45:10.428592 31469 net.cpp:406] conv1_5 <- pool1_4
I1220 17:45:10.428601 31469 net.cpp:380] conv1_5 -> conv1_5
I1220 17:45:10.449144 31469 net.cpp:122] Setting up conv1_5
I1220 17:45:10.449193 31469 net.cpp:129] Top shape: 1 256 32 32 (262144)
I1220 17:45:10.449198 31469 net.cpp:137] Memory required for data: 28000256
I1220 17:45:10.449215 31469 layer_factory.hpp:77] Creating layer relu1_5
I1220 17:45:10.449223 31469 net.cpp:84] Creating Layer relu1_5
I1220 17:45:10.449230 31469 net.cpp:406] relu1_5 <- conv1_5
I1220 17:45:10.449241 31469 net.cpp:367] relu1_5 -> conv1_5 (in-place)
I1220 17:45:10.449519 31469 net.cpp:122] Setting up relu1_5
I1220 17:45:10.449532 31469 net.cpp:129] Top shape: 1 256 32 32 (262144)
I1220 17:45:10.449537 31469 net.cpp:137] Memory required for data: 29048832
I1220 17:45:10.449542 31469 layer_factory.hpp:77] Creating layer conv1_6
I1220 17:45:10.449555 31469 net.cpp:84] Creating Layer conv1_6
I1220 17:45:10.449563 31469 net.cpp:406] conv1_6 <- conv1_5
I1220 17:45:10.449571 31469 net.cpp:380] conv1_6 -> conv1_6
I1220 17:45:10.472350 31469 net.cpp:122] Setting up conv1_6
I1220 17:45:10.472371 31469 net.cpp:129] Top shape: 1 256 32 32 (262144)
I1220 17:45:10.472376 31469 net.cpp:137] Memory required for data: 30097408
I1220 17:45:10.472385 31469 layer_factory.hpp:77] Creating layer relu1_6
I1220 17:45:10.472393 31469 net.cpp:84] Creating Layer relu1_6
I1220 17:45:10.472400 31469 net.cpp:406] relu1_6 <- conv1_6
I1220 17:45:10.472409 31469 net.cpp:367] relu1_6 -> conv1_6 (in-place)
I1220 17:45:10.472673 31469 net.cpp:122] Setting up relu1_6
I1220 17:45:10.472687 31469 net.cpp:129] Top shape: 1 256 32 32 (262144)
I1220 17:45:10.472690 31469 net.cpp:137] Memory required for data: 31145984
I1220 17:45:10.472695 31469 layer_factory.hpp:77] Creating layer conv
I1220 17:45:10.472712 31469 net.cpp:84] Creating Layer conv
I1220 17:45:10.472718 31469 net.cpp:406] conv <- conv1_6
I1220 17:45:10.472729 31469 net.cpp:380] conv -> estdmap
I1220 17:45:10.474612 31469 net.cpp:122] Setting up conv
I1220 17:45:10.474630 31469 net.cpp:129] Top shape: 1 1 32 32 (1024)
I1220 17:45:10.474635 31469 net.cpp:137] Memory required for data: 31150080
I1220 17:45:10.474647 31469 layer_factory.hpp:77] Creating layer estdmap_conv_0_split
I1220 17:45:10.474655 31469 net.cpp:84] Creating Layer estdmap_conv_0_split
I1220 17:45:10.474663 31469 net.cpp:406] estdmap_conv_0_split <- estdmap
I1220 17:45:10.474671 31469 net.cpp:380] estdmap_conv_0_split -> estdmap_conv_0_split_0
I1220 17:45:10.474683 31469 net.cpp:380] estdmap_conv_0_split -> estdmap_conv_0_split_1
I1220 17:45:10.474691 31469 net.cpp:380] estdmap_conv_0_split -> estdmap_conv_0_split_2
I1220 17:45:10.474756 31469 net.cpp:122] Setting up estdmap_conv_0_split
I1220 17:45:10.474764 31469 net.cpp:129] Top shape: 1 1 32 32 (1024)
I1220 17:45:10.474771 31469 net.cpp:129] Top shape: 1 1 32 32 (1024)
I1220 17:45:10.474778 31469 net.cpp:129] Top shape: 1 1 32 32 (1024)
I1220 17:45:10.474783 31469 net.cpp:137] Memory required for data: 31162368
I1220 17:45:10.474788 31469 layer_factory.hpp:77] Creating layer re_gtcount
I1220 17:45:10.474802 31469 net.cpp:84] Creating Layer re_gtcount
I1220 17:45:10.474807 31469 net.cpp:406] re_gtcount <- dmap_crowd_1_split_0
I1220 17:45:10.474815 31469 net.cpp:380] re_gtcount -> gtcount
I1220 17:45:10.474875 31469 net.cpp:122] Setting up re_gtcount
I1220 17:45:10.474884 31469 net.cpp:129] Top shape: 1 (1)
I1220 17:45:10.474889 31469 net.cpp:137] Memory required for data: 31162372
I1220 17:45:10.474895 31469 layer_factory.hpp:77] Creating layer re_estcount
I1220 17:45:10.474902 31469 net.cpp:84] Creating Layer re_estcount
I1220 17:45:10.474908 31469 net.cpp:406] re_estcount <- estdmap_conv_0_split_0
I1220 17:45:10.474916 31469 net.cpp:380] re_estcount -> estcount
I1220 17:45:10.474968 31469 net.cpp:122] Setting up re_estcount
I1220 17:45:10.474975 31469 net.cpp:129] Top shape: 1 (1)
I1220 17:45:10.474980 31469 net.cpp:137] Memory required for data: 31162376
I1220 17:45:10.474987 31469 layer_factory.hpp:77] Creating layer re_estcount_1
I1220 17:45:10.474993 31469 net.cpp:84] Creating Layer re_estcount_1
I1220 17:45:10.474999 31469 net.cpp:406] re_estcount_1 <- estdmap_conv_0_split_1
I1220 17:45:10.475008 31469 net.cpp:380] re_estcount_1 -> estcount_1
I1220 17:45:10.475077 31469 net.cpp:122] Setting up re_estcount_1
I1220 17:45:10.475087 31469 net.cpp:129] Top shape: 1 (1)
I1220 17:45:10.475092 31469 net.cpp:137] Memory required for data: 31162380
I1220 17:45:10.475097 31469 layer_factory.hpp:77] Creating layer re_gtcount_1
I1220 17:45:10.475106 31469 net.cpp:84] Creating Layer re_gtcount_1
I1220 17:45:10.475111 31469 net.cpp:406] re_gtcount_1 <- dmap_crowd_1_split_1
I1220 17:45:10.475119 31469 net.cpp:380] re_gtcount_1 -> gtcount_1
I1220 17:45:10.475168 31469 net.cpp:122] Setting up re_gtcount_1
I1220 17:45:10.475177 31469 net.cpp:129] Top shape: 1 (1)
I1220 17:45:10.475181 31469 net.cpp:137] Memory required for data: 31162384
I1220 17:45:10.475185 31469 layer_factory.hpp:77] Creating layer loss
I1220 17:45:10.475200 31469 net.cpp:84] Creating Layer loss
I1220 17:45:10.475206 31469 net.cpp:406] loss <- estdmap_conv_0_split_2
I1220 17:45:10.475214 31469 net.cpp:406] loss <- dmap_crowd_1_split_2
I1220 17:45:10.475221 31469 net.cpp:380] loss -> loss
…
