…
I1220 14:17:51.803192 17482 net.cpp:294] The NetState phase (0) differed from the phase (1) specified by a rule in layer crowd
I1220 14:17:51.803483 17482 net.cpp:51] Initializing net from parameters: 
name: "CrowdCount"
state {
  phase: TRAIN
  level: 0
  stage: ""
}
layer {
  name: "crowd"
  type: "CrowdData"
  top: "image"
  top: "dmap"
  include {
    phase: TRAIN
  }
  transform_param {
    scale: 1
  }
  image_data_param {
    source: "/home/zhangting/crowd_count/CWCC/CwCC_v2.0/test/crowd1_5_train.txt"
    batch_size: 1
    shuffle: false
    root_folder: "/ssd/wangmaorui/data/"
    downsamp_times: 2
    times_split: 0
    neighbor_num: 5
  }
}
layer {
  name: "conv1_1"
  type: "Convolution"
  bottom: "image"
  top: "conv1_1"
  param {
    lr_mult: 1
  }
  param {
    lr_mult: 2
  }
  convolution_param {
    num_output: 64
    pad: 2
    kernel_size: 5
    stride: 1
    weight_filler {
      type: "gaussian"
      std: 0.01
    }
    bias_filler {
      type: "constant"
      value: 0
    }
  }
}
layer {
  name: "relu1_1"
  type: "ReLU"
  bottom: "conv1_1"
  top: "conv1_1"
}
layer {
  name: "conv1_2"
  type: "Convolution"
  bottom: "conv1_1"
  top: "conv1_2"
  param {
    lr_mult: 1
  }
  param {
    lr_mult: 2
  }
  convolution_param {
    num_output: 64
    pad: 2
    kernel_size: 5
    stride: 1
    weight_filler {
      type: "gaussian"
      std: 0.01
    }
    bias_filler {
      type: "constant"
      value: 0
    }
  }
}
layer {
  name: "relu1_2"
  type: "ReLU"
  bottom: "conv1_2"
  top: "conv1_2"
}
layer {
  name: "pool1_2"
  type: "Pooling"
  bottom: "conv1_2"
  top: "pool1_2"
  pooling_param {
    pool: MAX
    kernel_size: 2
    stride: 2
  }
}
layer {
  name: "conv1_3"
  type: "Convolution"
  bottom: "pool1_2"
  top: "conv1_3"
  param {
    lr_mult: 1
  }
  param {
    lr_mult: 2
  }
  convolution_param {
    num_output: 128
    pad: 2
    kernel_size: 5
    stride: 1
    weight_filler {
      type: "gaussian"
      std: 0.01
    }
    bias_filler {
      type: "constant"
      value: 0
    }
  }
}
layer {
  name: "relu1_3"
  type: "ReLU"
  bottom: "conv1_3"
  top: "conv1_3"
}
layer {
  name: "conv1_4"
  type: "Convolution"
  bottom: "conv1_3"
  top: "conv1_4"
  param {
    lr_mult: 1
  }
  param {
    lr_mult: 2
  }
  convolution_param {
    num_output: 128
    pad: 2
    kernel_size: 5
    stride: 1
    weight_filler {
      type: "gaussian"
      std: 0.01
    }
    bias_filler {
      type: "constant"
      value: 0
    }
  }
}
layer {
  name: "relu1_4"
  type: "ReLU"
  bottom: "conv1_4"
  top: "conv1_4"
}
layer {
  name: "pool1_4"
  type: "Pooling"
  bottom: "conv1_4"
  top: "pool1_4"
  pooling_param {
    pool: MAX
    kernel_size: 2
    stride: 2
  }
}
layer {
  name: "conv1_5"
  type: "Convolution"
  bottom: "pool1_4"
  top: "conv1_5"
  param {
    lr_mult: 1
  }
  param {
    lr_mult: 2
  }
  convolution_param {
    num_output: 256
    pad: 1
    kernel_size: 3
    stride: 1
    weight_filler {
      type: "gaussian"
      std: 0.01
    }
    bias_filler {
      type: "constant"
      value: 0
    }
  }
}
layer {
  name: "relu1_5"
  type: "ReLU"
  bottom: "conv1_5"
  top: "conv1_5"
}
layer {
  name: "conv1_6"
  type: "Convolution"
  bottom: "conv1_5"
  top: "conv1_6"
  param {
    lr_mult: 1
  }
  param {
    lr_mult: 2
  }
  convolution_param {
    num_output: 256
    pad: 1
    kernel_size: 3
    stride: 1
    weight_filler {
      type: "gaussian"
      std: 0.01
    }
    bias_filler {
      type: "constant"
      value: 0
    }
  }
}
layer {
  name: "relu1_6"
  type: "ReLU"
  bottom: "conv1_6"
  top: "conv1_6"
}
layer {
  name: "conv"
  type: "Convolution"
  bottom: "conv1_6"
  top: "estdmap"
  convolution_param {
    num_output: 1
    kernel_size: 1
    weight_filler {
      type: "gaussian"
      std: 0.01
    }
  }
}
layer {
  name: "re_gtcount"
  type: "Reduction"
  bottom: "dmap"
  top: "gtcount"
  reduction_param {
    axis: 1
  }
}
layer {
  name: "re_estcount"
  type: "Reduction"
  bottom: "estdmap"
  top: "estcount"
  reduction_param {
    axis: 1
  }
}
layer {
  name: "re_estcount_1"
  type: "Reduction"
  bottom: "estdmap"
  top: "estcount_1"
  reduction_param {
    axis: 1
  }
}
layer {
  name: "re_gtcount_1"
  type: "Reduction"
  bottom: "dmap"
  top: "gtcount_1"
  reduction_param {
    axis: 1
  }
}
layer {
  name: "loss"
  type: "EuclideanLoss"
  bottom: "estdmap"
  bottom: "dmap"
  top: "loss"
}
layer {
  name: "loss2"
  type: "EuclideanLoss"
  bottom: "gtcount"
  bottom: "estcount"
  top: "loss2"
  loss_weight: 4e-05
}
I1220 14:17:51.803951 17482 layer_factory.hpp:77] Creating layer crowd
I1220 14:17:51.804005 17482 base_data_layer.cpp:41] prefetch_.size(): 4
I1220 14:17:51.804035 17482 net.cpp:84] Creating Layer crowd
I1220 14:17:51.804050 17482 net.cpp:380] crowd -> image
I1220 14:17:51.804087 17482 net.cpp:380] crowd -> dmap
I1220 14:17:52.004000 17482 crowd_data_layer.cpp:149] A total of 21182 crowd images.
I1220 14:17:52.023821 17482 net.cpp:122] Setting up crowd
I1220 14:17:52.023860 17482 net.cpp:129] Top shape: 1 3 128 128 (49152)
I1220 14:17:52.023867 17482 net.cpp:129] Top shape: 1 1 32 32 (1024)
I1220 14:17:52.023872 17482 net.cpp:137] Memory required for data: 200704
I1220 14:17:52.023897 17482 layer_factory.hpp:77] Creating layer dmap_crowd_1_split
I1220 14:17:52.023936 17482 net.cpp:84] Creating Layer dmap_crowd_1_split
I1220 14:17:52.023947 17482 net.cpp:406] dmap_crowd_1_split <- dmap
I1220 14:17:52.023967 17482 net.cpp:380] dmap_crowd_1_split -> dmap_crowd_1_split_0
I1220 14:17:52.023985 17482 net.cpp:380] dmap_crowd_1_split -> dmap_crowd_1_split_1
I1220 14:17:52.023995 17482 net.cpp:380] dmap_crowd_1_split -> dmap_crowd_1_split_2
I1220 14:17:52.024073 17482 net.cpp:122] Setting up dmap_crowd_1_split
I1220 14:17:52.024085 17482 net.cpp:129] Top shape: 1 1 32 32 (1024)
I1220 14:17:52.024091 17482 net.cpp:129] Top shape: 1 1 32 32 (1024)
I1220 14:17:52.024099 17482 net.cpp:129] Top shape: 1 1 32 32 (1024)
I1220 14:17:52.024106 17482 net.cpp:137] Memory required for data: 212992
I1220 14:17:52.024112 17482 layer_factory.hpp:77] Creating layer conv1_1
I1220 14:17:52.024139 17482 net.cpp:84] Creating Layer conv1_1
I1220 14:17:52.024147 17482 net.cpp:406] conv1_1 <- image
I1220 14:17:52.024158 17482 net.cpp:380] conv1_1 -> conv1_1
I1220 14:17:53.091572 17482 net.cpp:122] Setting up conv1_1
I1220 14:17:53.091619 17482 net.cpp:129] Top shape: 1 64 128 128 (1048576)
I1220 14:17:53.091626 17482 net.cpp:137] Memory required for data: 4407296
I1220 14:17:53.091650 17482 layer_factory.hpp:77] Creating layer relu1_1
I1220 14:17:53.091675 17482 net.cpp:84] Creating Layer relu1_1
I1220 14:17:53.091682 17482 net.cpp:406] relu1_1 <- conv1_1
I1220 14:17:53.091692 17482 net.cpp:367] relu1_1 -> conv1_1 (in-place)
I1220 14:17:53.097795 17482 net.cpp:122] Setting up relu1_1
I1220 14:17:53.097815 17482 net.cpp:129] Top shape: 1 64 128 128 (1048576)
I1220 14:17:53.097821 17482 net.cpp:137] Memory required for data: 8601600
I1220 14:17:53.097851 17482 layer_factory.hpp:77] Creating layer conv1_2
I1220 14:17:53.097879 17482 net.cpp:84] Creating Layer conv1_2
I1220 14:17:53.097887 17482 net.cpp:406] conv1_2 <- conv1_1
I1220 14:17:53.097895 17482 net.cpp:380] conv1_2 -> conv1_2
I1220 14:17:53.104301 17482 net.cpp:122] Setting up conv1_2
I1220 14:17:53.104321 17482 net.cpp:129] Top shape: 1 64 128 128 (1048576)
I1220 14:17:53.104327 17482 net.cpp:137] Memory required for data: 12795904
I1220 14:17:53.104341 17482 layer_factory.hpp:77] Creating layer relu1_2
I1220 14:17:53.104349 17482 net.cpp:84] Creating Layer relu1_2
I1220 14:17:53.104356 17482 net.cpp:406] relu1_2 <- conv1_2
I1220 14:17:53.104403 17482 net.cpp:367] relu1_2 -> conv1_2 (in-place)
I1220 14:17:53.104635 17482 net.cpp:122] Setting up relu1_2
I1220 14:17:53.104646 17482 net.cpp:129] Top shape: 1 64 128 128 (1048576)
I1220 14:17:53.104652 17482 net.cpp:137] Memory required for data: 16990208
I1220 14:17:53.104658 17482 layer_factory.hpp:77] Creating layer pool1_2
I1220 14:17:53.104676 17482 net.cpp:84] Creating Layer pool1_2
I1220 14:17:53.104681 17482 net.cpp:406] pool1_2 <- conv1_2
I1220 14:17:53.104691 17482 net.cpp:380] pool1_2 -> pool1_2
I1220 14:17:53.104758 17482 net.cpp:122] Setting up pool1_2
I1220 14:17:53.104768 17482 net.cpp:129] Top shape: 1 64 64 64 (262144)
I1220 14:17:53.104773 17482 net.cpp:137] Memory required for data: 18038784
I1220 14:17:53.104779 17482 layer_factory.hpp:77] Creating layer conv1_3
I1220 14:17:53.104791 17482 net.cpp:84] Creating Layer conv1_3
I1220 14:17:53.104797 17482 net.cpp:406] conv1_3 <- pool1_2
I1220 14:17:53.104805 17482 net.cpp:380] conv1_3 -> conv1_3
I1220 14:17:53.119421 17482 net.cpp:122] Setting up conv1_3
I1220 14:17:53.119442 17482 net.cpp:129] Top shape: 1 128 64 64 (524288)
I1220 14:17:53.119448 17482 net.cpp:137] Memory required for data: 20135936
I1220 14:17:53.119469 17482 layer_factory.hpp:77] Creating layer relu1_3
I1220 14:17:53.119480 17482 net.cpp:84] Creating Layer relu1_3
I1220 14:17:53.119487 17482 net.cpp:406] relu1_3 <- conv1_3
I1220 14:17:53.119494 17482 net.cpp:367] relu1_3 -> conv1_3 (in-place)
I1220 14:17:53.119746 17482 net.cpp:122] Setting up relu1_3
I1220 14:17:53.119758 17482 net.cpp:129] Top shape: 1 128 64 64 (524288)
I1220 14:17:53.119763 17482 net.cpp:137] Memory required for data: 22233088
I1220 14:17:53.119767 17482 layer_factory.hpp:77] Creating layer conv1_4
I1220 14:17:53.119786 17482 net.cpp:84] Creating Layer conv1_4
I1220 14:17:53.119792 17482 net.cpp:406] conv1_4 <- conv1_3
I1220 14:17:53.119801 17482 net.cpp:380] conv1_4 -> conv1_4
I1220 14:17:53.135283 17482 net.cpp:122] Setting up conv1_4
I1220 14:17:53.135303 17482 net.cpp:129] Top shape: 1 128 64 64 (524288)
I1220 14:17:53.135308 17482 net.cpp:137] Memory required for data: 24330240
I1220 14:17:53.135316 17482 layer_factory.hpp:77] Creating layer relu1_4
I1220 14:17:53.135324 17482 net.cpp:84] Creating Layer relu1_4
I1220 14:17:53.135331 17482 net.cpp:406] relu1_4 <- conv1_4
I1220 14:17:53.135339 17482 net.cpp:367] relu1_4 -> conv1_4 (in-place)
I1220 14:17:53.136385 17482 net.cpp:122] Setting up relu1_4
I1220 14:17:53.136402 17482 net.cpp:129] Top shape: 1 128 64 64 (524288)
I1220 14:17:53.136407 17482 net.cpp:137] Memory required for data: 26427392
I1220 14:17:53.136412 17482 layer_factory.hpp:77] Creating layer pool1_4
I1220 14:17:53.136420 17482 net.cpp:84] Creating Layer pool1_4
I1220 14:17:53.136428 17482 net.cpp:406] pool1_4 <- conv1_4
I1220 14:17:53.136449 17482 net.cpp:380] pool1_4 -> pool1_4
I1220 14:17:53.136502 17482 net.cpp:122] Setting up pool1_4
I1220 14:17:53.136512 17482 net.cpp:129] Top shape: 1 128 32 32 (131072)
I1220 14:17:53.136517 17482 net.cpp:137] Memory required for data: 26951680
I1220 14:17:53.136528 17482 layer_factory.hpp:77] Creating layer conv1_5
I1220 14:17:53.136544 17482 net.cpp:84] Creating Layer conv1_5
I1220 14:17:53.136551 17482 net.cpp:406] conv1_5 <- pool1_4
I1220 14:17:53.136559 17482 net.cpp:380] conv1_5 -> conv1_5
I1220 14:17:53.151486 17482 net.cpp:122] Setting up conv1_5
I1220 14:17:53.151510 17482 net.cpp:129] Top shape: 1 256 32 32 (262144)
I1220 14:17:53.151515 17482 net.cpp:137] Memory required for data: 28000256
I1220 14:17:53.151530 17482 layer_factory.hpp:77] Creating layer relu1_5
I1220 14:17:53.151541 17482 net.cpp:84] Creating Layer relu1_5
I1220 14:17:53.151547 17482 net.cpp:406] relu1_5 <- conv1_5
I1220 14:17:53.151556 17482 net.cpp:367] relu1_5 -> conv1_5 (in-place)
I1220 14:17:53.151855 17482 net.cpp:122] Setting up relu1_5
I1220 14:17:53.151870 17482 net.cpp:129] Top shape: 1 256 32 32 (262144)
I1220 14:17:53.151875 17482 net.cpp:137] Memory required for data: 29048832
I1220 14:17:53.151880 17482 layer_factory.hpp:77] Creating layer conv1_6
I1220 14:17:53.151919 17482 net.cpp:84] Creating Layer conv1_6
I1220 14:17:53.151927 17482 net.cpp:406] conv1_6 <- conv1_5
I1220 14:17:53.151937 17482 net.cpp:380] conv1_6 -> conv1_6
I1220 14:17:53.173995 17482 net.cpp:122] Setting up conv1_6
I1220 14:17:53.174021 17482 net.cpp:129] Top shape: 1 256 32 32 (262144)
I1220 14:17:53.174026 17482 net.cpp:137] Memory required for data: 30097408
I1220 14:17:53.174036 17482 layer_factory.hpp:77] Creating layer relu1_6
I1220 14:17:53.174049 17482 net.cpp:84] Creating Layer relu1_6
I1220 14:17:53.174057 17482 net.cpp:406] relu1_6 <- conv1_6
I1220 14:17:53.174067 17482 net.cpp:367] relu1_6 -> conv1_6 (in-place)
I1220 14:17:53.174347 17482 net.cpp:122] Setting up relu1_6
I1220 14:17:53.174360 17482 net.cpp:129] Top shape: 1 256 32 32 (262144)
I1220 14:17:53.174365 17482 net.cpp:137] Memory required for data: 31145984
I1220 14:17:53.174382 17482 layer_factory.hpp:77] Creating layer conv
I1220 14:17:53.174407 17482 net.cpp:84] Creating Layer conv
I1220 14:17:53.174413 17482 net.cpp:406] conv <- conv1_6
I1220 14:17:53.174423 17482 net.cpp:380] conv -> estdmap
I1220 14:17:53.176337 17482 net.cpp:122] Setting up conv
I1220 14:17:53.176355 17482 net.cpp:129] Top shape: 1 1 32 32 (1024)
I1220 14:17:53.176362 17482 net.cpp:137] Memory required for data: 31150080
I1220 14:17:53.176370 17482 layer_factory.hpp:77] Creating layer estdmap_conv_0_split
I1220 14:17:53.176380 17482 net.cpp:84] Creating Layer estdmap_conv_0_split
I1220 14:17:53.176386 17482 net.cpp:406] estdmap_conv_0_split <- estdmap
I1220 14:17:53.176394 17482 net.cpp:380] estdmap_conv_0_split -> estdmap_conv_0_split_0
I1220 14:17:53.176405 17482 net.cpp:380] estdmap_conv_0_split -> estdmap_conv_0_split_1
I1220 14:17:53.176414 17482 net.cpp:380] estdmap_conv_0_split -> estdmap_conv_0_split_2
I1220 14:17:53.176481 17482 net.cpp:122] Setting up estdmap_conv_0_split
I1220 14:17:53.176489 17482 net.cpp:129] Top shape: 1 1 32 32 (1024)
I1220 14:17:53.176496 17482 net.cpp:129] Top shape: 1 1 32 32 (1024)
I1220 14:17:53.176502 17482 net.cpp:129] Top shape: 1 1 32 32 (1024)
I1220 14:17:53.176507 17482 net.cpp:137] Memory required for data: 31162368
I1220 14:17:53.176512 17482 layer_factory.hpp:77] Creating layer re_gtcount
I1220 14:17:53.176537 17482 net.cpp:84] Creating Layer re_gtcount
I1220 14:17:53.176542 17482 net.cpp:406] re_gtcount <- dmap_crowd_1_split_0
I1220 14:17:53.176551 17482 net.cpp:380] re_gtcount -> gtcount
I1220 14:17:53.176616 17482 net.cpp:122] Setting up re_gtcount
I1220 14:17:53.176625 17482 net.cpp:129] Top shape: 1 (1)
I1220 14:17:53.176630 17482 net.cpp:137] Memory required for data: 31162372
I1220 14:17:53.176635 17482 layer_factory.hpp:77] Creating layer re_estcount
I1220 14:17:53.176643 17482 net.cpp:84] Creating Layer re_estcount
I1220 14:17:53.176648 17482 net.cpp:406] re_estcount <- estdmap_conv_0_split_0
I1220 14:17:53.176656 17482 net.cpp:380] re_estcount -> estcount
I1220 14:17:53.176707 17482 net.cpp:122] Setting up re_estcount
I1220 14:17:53.176715 17482 net.cpp:129] Top shape: 1 (1)
I1220 14:17:53.176720 17482 net.cpp:137] Memory required for data: 31162376
I1220 14:17:53.176725 17482 layer_factory.hpp:77] Creating layer re_estcount_1
I1220 14:17:53.176739 17482 net.cpp:84] Creating Layer re_estcount_1
I1220 14:17:53.176745 17482 net.cpp:406] re_estcount_1 <- estdmap_conv_0_split_1
I1220 14:17:53.176753 17482 net.cpp:380] re_estcount_1 -> estcount_1
I1220 14:17:53.176805 17482 net.cpp:122] Setting up re_estcount_1
I1220 14:17:53.176812 17482 net.cpp:129] Top shape: 1 (1)
I1220 14:17:53.176817 17482 net.cpp:137] Memory required for data: 31162380
I1220 14:17:53.176822 17482 layer_factory.hpp:77] Creating layer re_gtcount_1
I1220 14:17:53.176831 17482 net.cpp:84] Creating Layer re_gtcount_1
I1220 14:17:53.176836 17482 net.cpp:406] re_gtcount_1 <- dmap_crowd_1_split_1
I1220 14:17:53.176843 17482 net.cpp:380] re_gtcount_1 -> gtcount_1
I1220 14:17:53.176892 17482 net.cpp:122] Setting up re_gtcount_1
I1220 14:17:53.176900 17482 net.cpp:129] Top shape: 1 (1)
I1220 14:17:53.176905 17482 net.cpp:137] Memory required for data: 31162384
I1220 14:17:53.176935 17482 layer_factory.hpp:77] Creating layer loss
I1220 14:17:53.176955 17482 net.cpp:84] Creating Layer loss
I1220 14:17:53.176961 17482 net.cpp:406] loss <- estdmap_conv_0_split_2
I1220 14:17:53.176967 17482 net.cpp:406] loss <- dmap_crowd_1_split_2
I1220 14:17:53.176976 17482 net.cpp:380] loss -> loss
…
