…
I1220 14:12:23.971112 15607 net.cpp:294] The NetState phase (0) differed from the phase (1) specified by a rule in layer crowd
I1220 14:12:23.971416 15607 net.cpp:51] Initializing net from parameters: 
name: "CrowdCount"
state {
  phase: TRAIN
  level: 0
  stage: ""
}
layer {
  name: "crowd"
  type: "CrowdData"
  top: "image"
  top: "dmap"
  include {
    phase: TRAIN
  }
  transform_param {
    scale: 1
  }
  image_data_param {
    source: "/home/zhangting/crowd_count/CWCC/CwCC_v2.0/test/crowd1_5_train.txt"
    batch_size: 1
    shuffle: false
    root_folder: "/ssd/wangmaorui/data/"
    downsamp_times: 2
    times_split: 0
    neighbor_num: 5
  }
}
layer {
  name: "conv1_1"
  type: "Convolution"
  bottom: "image"
  top: "conv1_1"
  param {
    lr_mult: 1
  }
  param {
    lr_mult: 2
  }
  convolution_param {
    num_output: 64
    pad: 2
    kernel_size: 5
    stride: 1
    weight_filler {
      type: "gaussian"
      std: 0.01
    }
    bias_filler {
      type: "constant"
      value: 0
    }
  }
}
layer {
  name: "relu1_1"
  type: "ReLU"
  bottom: "conv1_1"
  top: "conv1_1"
}
layer {
  name: "conv1_2"
  type: "Convolution"
  bottom: "conv1_1"
  top: "conv1_2"
  param {
    lr_mult: 1
  }
  param {
    lr_mult: 2
  }
  convolution_param {
    num_output: 64
    pad: 2
    kernel_size: 5
    stride: 1
    weight_filler {
      type: "gaussian"
      std: 0.01
    }
    bias_filler {
      type: "constant"
      value: 0
    }
  }
}
layer {
  name: "relu1_2"
  type: "ReLU"
  bottom: "conv1_2"
  top: "conv1_2"
}
layer {
  name: "pool1_2"
  type: "Pooling"
  bottom: "conv1_2"
  top: "pool1_2"
  pooling_param {
    pool: MAX
    kernel_size: 2
    stride: 2
  }
}
layer {
  name: "conv1_3"
  type: "Convolution"
  bottom: "pool1_2"
  top: "conv1_3"
  param {
    lr_mult: 1
  }
  param {
    lr_mult: 2
  }
  convolution_param {
    num_output: 128
    pad: 2
    kernel_size: 5
    stride: 1
    weight_filler {
      type: "gaussian"
      std: 0.01
    }
    bias_filler {
      type: "constant"
      value: 0
    }
  }
}
layer {
  name: "relu1_3"
  type: "ReLU"
  bottom: "conv1_3"
  top: "conv1_3"
}
layer {
  name: "conv1_4"
  type: "Convolution"
  bottom: "conv1_3"
  top: "conv1_4"
  param {
    lr_mult: 1
  }
  param {
    lr_mult: 2
  }
  convolution_param {
    num_output: 128
    pad: 2
    kernel_size: 5
    stride: 1
    weight_filler {
      type: "gaussian"
      std: 0.01
    }
    bias_filler {
      type: "constant"
      value: 0
    }
  }
}
layer {
  name: "relu1_4"
  type: "ReLU"
  bottom: "conv1_4"
  top: "conv1_4"
}
layer {
  name: "pool1_4"
  type: "Pooling"
  bottom: "conv1_4"
  top: "pool1_4"
  pooling_param {
    pool: MAX
    kernel_size: 2
    stride: 2
  }
}
layer {
  name: "conv1_5"
  type: "Convolution"
  bottom: "pool1_4"
  top: "conv1_5"
  param {
    lr_mult: 1
  }
  param {
    lr_mult: 2
  }
  convolution_param {
    num_output: 256
    pad: 1
    kernel_size: 3
    stride: 1
    weight_filler {
      type: "gaussian"
      std: 0.01
    }
    bias_filler {
      type: "constant"
      value: 0
    }
  }
}
layer {
  name: "relu1_5"
  type: "ReLU"
  bottom: "conv1_5"
  top: "conv1_5"
}
layer {
  name: "conv1_6"
  type: "Convolution"
  bottom: "conv1_5"
  top: "conv1_6"
  param {
    lr_mult: 1
  }
  param {
    lr_mult: 2
  }
  convolution_param {
    num_output: 256
    pad: 1
    kernel_size: 3
    stride: 1
    weight_filler {
      type: "gaussian"
      std: 0.01
    }
    bias_filler {
      type: "constant"
      value: 0
    }
  }
}
layer {
  name: "relu1_6"
  type: "ReLU"
  bottom: "conv1_6"
  top: "conv1_6"
}
layer {
  name: "conv"
  type: "Convolution"
  bottom: "conv1_6"
  top: "estdmap"
  convolution_param {
    num_output: 1
    kernel_size: 1
    weight_filler {
      type: "gaussian"
      std: 0.01
    }
  }
}
layer {
  name: "re_gtcount"
  type: "Reduction"
  bottom: "dmap"
  top: "gtcount"
  reduction_param {
    axis: 1
  }
}
layer {
  name: "re_estcount"
  type: "Reduction"
  bottom: "estdmap"
  top: "estcount"
  reduction_param {
    axis: 1
  }
}
layer {
  name: "re_estcount_1"
  type: "Reduction"
  bottom: "estdmap"
  top: "estcount_1"
  reduction_param {
    axis: 1
  }
}
layer {
  name: "re_gtcount_1"
  type: "Reduction"
  bottom: "dmap"
  top: "gtcount_1"
  reduction_param {
    axis: 1
  }
}
layer {
  name: "loss"
  type: "EuclideanLoss"
  bottom: "estdmap"
  bottom: "dmap"
  top: "loss"
}
layer {
  name: "loss2"
  type: "EuclideanLoss"
  bottom: "gtcount"
  bottom: "estcount"
  top: "loss2"
  loss_weight: 4e-05
}
I1220 14:12:23.971879 15607 layer_factory.hpp:77] Creating layer crowd
I1220 14:12:23.971940 15607 base_data_layer.cpp:41] prefetch_.size(): 4
I1220 14:12:23.971971 15607 net.cpp:84] Creating Layer crowd
I1220 14:12:23.971987 15607 net.cpp:380] crowd -> image
I1220 14:12:23.972028 15607 net.cpp:380] crowd -> dmap
I1220 14:12:24.171988 15607 crowd_data_layer.cpp:149] A total of 21182 crowd images.
I1220 14:12:24.196611 15607 net.cpp:122] Setting up crowd
I1220 14:12:24.196640 15607 net.cpp:129] Top shape: 1 3 128 128 (49152)
I1220 14:12:24.196647 15607 net.cpp:129] Top shape: 1 1 32 32 (1024)
I1220 14:12:24.196652 15607 net.cpp:137] Memory required for data: 200704
I1220 14:12:24.196769 15607 layer_factory.hpp:77] Creating layer dmap_crowd_1_split
I1220 14:12:24.196871 15607 net.cpp:84] Creating Layer dmap_crowd_1_split
I1220 14:12:24.196884 15607 net.cpp:406] dmap_crowd_1_split <- dmap
I1220 14:12:24.196909 15607 net.cpp:380] dmap_crowd_1_split -> dmap_crowd_1_split_0
I1220 14:12:24.196931 15607 net.cpp:380] dmap_crowd_1_split -> dmap_crowd_1_split_1
I1220 14:12:24.196944 15607 net.cpp:380] dmap_crowd_1_split -> dmap_crowd_1_split_2
I1220 14:12:24.197098 15607 net.cpp:122] Setting up dmap_crowd_1_split
I1220 14:12:24.197113 15607 net.cpp:129] Top shape: 1 1 32 32 (1024)
I1220 14:12:24.197121 15607 net.cpp:129] Top shape: 1 1 32 32 (1024)
I1220 14:12:24.197129 15607 net.cpp:129] Top shape: 1 1 32 32 (1024)
I1220 14:12:24.197135 15607 net.cpp:137] Memory required for data: 212992
I1220 14:12:24.197141 15607 layer_factory.hpp:77] Creating layer conv1_1
I1220 14:12:24.197182 15607 net.cpp:84] Creating Layer conv1_1
I1220 14:12:24.197190 15607 net.cpp:406] conv1_1 <- image
I1220 14:12:24.197202 15607 net.cpp:380] conv1_1 -> conv1_1
I1220 14:12:25.371078 15607 net.cpp:122] Setting up conv1_1
I1220 14:12:25.371122 15607 net.cpp:129] Top shape: 1 64 128 128 (1048576)
I1220 14:12:25.371129 15607 net.cpp:137] Memory required for data: 4407296
I1220 14:12:25.371150 15607 layer_factory.hpp:77] Creating layer relu1_1
I1220 14:12:25.371173 15607 net.cpp:84] Creating Layer relu1_1
I1220 14:12:25.371182 15607 net.cpp:406] relu1_1 <- conv1_1
I1220 14:12:25.371192 15607 net.cpp:367] relu1_1 -> conv1_1 (in-place)
I1220 14:12:25.372237 15607 net.cpp:122] Setting up relu1_1
I1220 14:12:25.372256 15607 net.cpp:129] Top shape: 1 64 128 128 (1048576)
I1220 14:12:25.372261 15607 net.cpp:137] Memory required for data: 8601600
I1220 14:12:25.372267 15607 layer_factory.hpp:77] Creating layer conv1_2
I1220 14:12:25.372287 15607 net.cpp:84] Creating Layer conv1_2
I1220 14:12:25.372294 15607 net.cpp:406] conv1_2 <- conv1_1
I1220 14:12:25.372304 15607 net.cpp:380] conv1_2 -> conv1_2
I1220 14:12:25.378685 15607 net.cpp:122] Setting up conv1_2
I1220 14:12:25.378705 15607 net.cpp:129] Top shape: 1 64 128 128 (1048576)
I1220 14:12:25.378710 15607 net.cpp:137] Memory required for data: 12795904
I1220 14:12:25.378723 15607 layer_factory.hpp:77] Creating layer relu1_2
I1220 14:12:25.378733 15607 net.cpp:84] Creating Layer relu1_2
I1220 14:12:25.378739 15607 net.cpp:406] relu1_2 <- conv1_2
I1220 14:12:25.378793 15607 net.cpp:367] relu1_2 -> conv1_2 (in-place)
I1220 14:12:25.379034 15607 net.cpp:122] Setting up relu1_2
I1220 14:12:25.379045 15607 net.cpp:129] Top shape: 1 64 128 128 (1048576)
I1220 14:12:25.379050 15607 net.cpp:137] Memory required for data: 16990208
I1220 14:12:25.379055 15607 layer_factory.hpp:77] Creating layer pool1_2
I1220 14:12:25.379063 15607 net.cpp:84] Creating Layer pool1_2
I1220 14:12:25.379067 15607 net.cpp:406] pool1_2 <- conv1_2
I1220 14:12:25.379075 15607 net.cpp:380] pool1_2 -> pool1_2
I1220 14:12:25.379143 15607 net.cpp:122] Setting up pool1_2
I1220 14:12:25.379153 15607 net.cpp:129] Top shape: 1 64 64 64 (262144)
I1220 14:12:25.379158 15607 net.cpp:137] Memory required for data: 18038784
I1220 14:12:25.379164 15607 layer_factory.hpp:77] Creating layer conv1_3
I1220 14:12:25.379179 15607 net.cpp:84] Creating Layer conv1_3
I1220 14:12:25.379184 15607 net.cpp:406] conv1_3 <- pool1_2
I1220 14:12:25.379192 15607 net.cpp:380] conv1_3 -> conv1_3
I1220 14:12:25.390835 15607 net.cpp:122] Setting up conv1_3
I1220 14:12:25.390894 15607 net.cpp:129] Top shape: 1 128 64 64 (524288)
I1220 14:12:25.390908 15607 net.cpp:137] Memory required for data: 20135936
I1220 14:12:25.390939 15607 layer_factory.hpp:77] Creating layer relu1_3
I1220 14:12:25.390967 15607 net.cpp:84] Creating Layer relu1_3
I1220 14:12:25.390980 15607 net.cpp:406] relu1_3 <- conv1_3
I1220 14:12:25.391002 15607 net.cpp:367] relu1_3 -> conv1_3 (in-place)
I1220 14:12:25.391528 15607 net.cpp:122] Setting up relu1_3
I1220 14:12:25.391551 15607 net.cpp:129] Top shape: 1 128 64 64 (524288)
I1220 14:12:25.391559 15607 net.cpp:137] Memory required for data: 22233088
I1220 14:12:25.391584 15607 layer_factory.hpp:77] Creating layer conv1_4
I1220 14:12:25.391616 15607 net.cpp:84] Creating Layer conv1_4
I1220 14:12:25.391628 15607 net.cpp:406] conv1_4 <- conv1_3
I1220 14:12:25.391647 15607 net.cpp:380] conv1_4 -> conv1_4
I1220 14:12:25.420078 15607 net.cpp:122] Setting up conv1_4
I1220 14:12:25.420114 15607 net.cpp:129] Top shape: 1 128 64 64 (524288)
I1220 14:12:25.420125 15607 net.cpp:137] Memory required for data: 24330240
I1220 14:12:25.420140 15607 layer_factory.hpp:77] Creating layer relu1_4
I1220 14:12:25.420166 15607 net.cpp:84] Creating Layer relu1_4
I1220 14:12:25.420176 15607 net.cpp:406] relu1_4 <- conv1_4
I1220 14:12:25.420189 15607 net.cpp:367] relu1_4 -> conv1_4 (in-place)
I1220 14:12:25.421892 15607 net.cpp:122] Setting up relu1_4
I1220 14:12:25.421918 15607 net.cpp:129] Top shape: 1 128 64 64 (524288)
I1220 14:12:25.421928 15607 net.cpp:137] Memory required for data: 26427392
I1220 14:12:25.421938 15607 layer_factory.hpp:77] Creating layer pool1_4
I1220 14:12:25.421954 15607 net.cpp:84] Creating Layer pool1_4
I1220 14:12:25.421964 15607 net.cpp:406] pool1_4 <- conv1_4
I1220 14:12:25.421980 15607 net.cpp:380] pool1_4 -> pool1_4
I1220 14:12:25.422071 15607 net.cpp:122] Setting up pool1_4
I1220 14:12:25.422086 15607 net.cpp:129] Top shape: 1 128 32 32 (131072)
I1220 14:12:25.422094 15607 net.cpp:137] Memory required for data: 26951680
I1220 14:12:25.422102 15607 layer_factory.hpp:77] Creating layer conv1_5
I1220 14:12:25.422145 15607 net.cpp:84] Creating Layer conv1_5
I1220 14:12:25.422157 15607 net.cpp:406] conv1_5 <- pool1_4
I1220 14:12:25.422170 15607 net.cpp:380] conv1_5 -> conv1_5
I1220 14:12:25.444239 15607 net.cpp:122] Setting up conv1_5
I1220 14:12:25.444267 15607 net.cpp:129] Top shape: 1 256 32 32 (262144)
I1220 14:12:25.444277 15607 net.cpp:137] Memory required for data: 28000256
I1220 14:12:25.444298 15607 layer_factory.hpp:77] Creating layer relu1_5
I1220 14:12:25.444321 15607 net.cpp:84] Creating Layer relu1_5
I1220 14:12:25.444332 15607 net.cpp:406] relu1_5 <- conv1_5
I1220 14:12:25.444344 15607 net.cpp:367] relu1_5 -> conv1_5 (in-place)
I1220 14:12:25.444736 15607 net.cpp:122] Setting up relu1_5
I1220 14:12:25.444754 15607 net.cpp:129] Top shape: 1 256 32 32 (262144)
I1220 14:12:25.444762 15607 net.cpp:137] Memory required for data: 29048832
I1220 14:12:25.444772 15607 layer_factory.hpp:77] Creating layer conv1_6
I1220 14:12:25.444833 15607 net.cpp:84] Creating Layer conv1_6
I1220 14:12:25.444842 15607 net.cpp:406] conv1_6 <- conv1_5
I1220 14:12:25.444856 15607 net.cpp:380] conv1_6 -> conv1_6
I1220 14:12:25.485648 15607 net.cpp:122] Setting up conv1_6
I1220 14:12:25.485697 15607 net.cpp:129] Top shape: 1 256 32 32 (262144)
I1220 14:12:25.485707 15607 net.cpp:137] Memory required for data: 30097408
I1220 14:12:25.485728 15607 layer_factory.hpp:77] Creating layer relu1_6
I1220 14:12:25.485747 15607 net.cpp:84] Creating Layer relu1_6
I1220 14:12:25.485760 15607 net.cpp:406] relu1_6 <- conv1_6
I1220 14:12:25.485776 15607 net.cpp:367] relu1_6 -> conv1_6 (in-place)
I1220 14:12:25.486243 15607 net.cpp:122] Setting up relu1_6
I1220 14:12:25.486261 15607 net.cpp:129] Top shape: 1 256 32 32 (262144)
I1220 14:12:25.486269 15607 net.cpp:137] Memory required for data: 31145984
I1220 14:12:25.486281 15607 layer_factory.hpp:77] Creating layer conv
I1220 14:12:25.486307 15607 net.cpp:84] Creating Layer conv
I1220 14:12:25.486318 15607 net.cpp:406] conv <- conv1_6
I1220 14:12:25.486333 15607 net.cpp:380] conv -> estdmap
I1220 14:12:25.489245 15607 net.cpp:122] Setting up conv
I1220 14:12:25.489274 15607 net.cpp:129] Top shape: 1 1 32 32 (1024)
I1220 14:12:25.489282 15607 net.cpp:137] Memory required for data: 31150080
I1220 14:12:25.489296 15607 layer_factory.hpp:77] Creating layer estdmap_conv_0_split
I1220 14:12:25.489313 15607 net.cpp:84] Creating Layer estdmap_conv_0_split
I1220 14:12:25.489323 15607 net.cpp:406] estdmap_conv_0_split <- estdmap
I1220 14:12:25.489337 15607 net.cpp:380] estdmap_conv_0_split -> estdmap_conv_0_split_0
I1220 14:12:25.489354 15607 net.cpp:380] estdmap_conv_0_split -> estdmap_conv_0_split_1
I1220 14:12:25.489368 15607 net.cpp:380] estdmap_conv_0_split -> estdmap_conv_0_split_2
I1220 14:12:25.489471 15607 net.cpp:122] Setting up estdmap_conv_0_split
I1220 14:12:25.489485 15607 net.cpp:129] Top shape: 1 1 32 32 (1024)
I1220 14:12:25.489493 15607 net.cpp:129] Top shape: 1 1 32 32 (1024)
I1220 14:12:25.489506 15607 net.cpp:129] Top shape: 1 1 32 32 (1024)
I1220 14:12:25.489513 15607 net.cpp:137] Memory required for data: 31162368
I1220 14:12:25.489521 15607 layer_factory.hpp:77] Creating layer re_gtcount
I1220 14:12:25.489552 15607 net.cpp:84] Creating Layer re_gtcount
I1220 14:12:25.489563 15607 net.cpp:406] re_gtcount <- dmap_crowd_1_split_0
I1220 14:12:25.489576 15607 net.cpp:380] re_gtcount -> gtcount
I1220 14:12:25.489671 15607 net.cpp:122] Setting up re_gtcount
I1220 14:12:25.489686 15607 net.cpp:129] Top shape: 1 (1)
I1220 14:12:25.489693 15607 net.cpp:137] Memory required for data: 31162372
I1220 14:12:25.489701 15607 layer_factory.hpp:77] Creating layer re_estcount
I1220 14:12:25.489714 15607 net.cpp:84] Creating Layer re_estcount
I1220 14:12:25.489723 15607 net.cpp:406] re_estcount <- estdmap_conv_0_split_0
I1220 14:12:25.489737 15607 net.cpp:380] re_estcount -> estcount
I1220 14:12:25.489819 15607 net.cpp:122] Setting up re_estcount
I1220 14:12:25.489830 15607 net.cpp:129] Top shape: 1 (1)
I1220 14:12:25.489850 15607 net.cpp:137] Memory required for data: 31162376
I1220 14:12:25.489857 15607 layer_factory.hpp:77] Creating layer re_estcount_1
I1220 14:12:25.489879 15607 net.cpp:84] Creating Layer re_estcount_1
I1220 14:12:25.489888 15607 net.cpp:406] re_estcount_1 <- estdmap_conv_0_split_1
I1220 14:12:25.489902 15607 net.cpp:380] re_estcount_1 -> estcount_1
I1220 14:12:25.489984 15607 net.cpp:122] Setting up re_estcount_1
I1220 14:12:25.489996 15607 net.cpp:129] Top shape: 1 (1)
I1220 14:12:25.490005 15607 net.cpp:137] Memory required for data: 31162380
I1220 14:12:25.490013 15607 layer_factory.hpp:77] Creating layer re_gtcount_1
I1220 14:12:25.490028 15607 net.cpp:84] Creating Layer re_gtcount_1
I1220 14:12:25.490039 15607 net.cpp:406] re_gtcount_1 <- dmap_crowd_1_split_1
I1220 14:12:25.490052 15607 net.cpp:380] re_gtcount_1 -> gtcount_1
I1220 14:12:25.490133 15607 net.cpp:122] Setting up re_gtcount_1
I1220 14:12:25.490144 15607 net.cpp:129] Top shape: 1 (1)
I1220 14:12:25.490152 15607 net.cpp:137] Memory required for data: 31162384
I1220 14:12:25.490203 15607 layer_factory.hpp:77] Creating layer loss
I1220 14:12:25.490228 15607 net.cpp:84] Creating Layer loss
I1220 14:12:25.490238 15607 net.cpp:406] loss <- estdmap_conv_0_split_2
I1220 14:12:25.490248 15607 net.cpp:406] loss <- dmap_crowd_1_split_2
I1220 14:12:25.490262 15607 net.cpp:380] loss -> loss
…
